src/deep_ant/model.pt (torch, 73211 bytes, 8 tensors)

conv1.weight f4 [128, 2, 2]
00000000: 9647 c73e 9981 d33e 33be febd 27cb e53e
00000010: b05c e0bd 38a2 ce3d 1045 79be 2858 963e
00000020: 96f8 e33e 5983 bbbe ad0d de3e 6175 c33d
00000030: 9422 bd3e 50ae 8a3d 5ce1 763e 6094 90bd
00000040: 5291 c13e afee 963d 25e9 65be f80d 0c3e
00000050: ace5 6bbe c02c 70bd fcf3 4fbe aed2 a93e
00000060: 5325 c6be e1fc 68be 1060 18be e2c1 9ebe
00000070: ff43 403d 3ac1 fdbe cf42 e43e d90c dabe
00000080: c657 c43e 4be1 a33d f668 29be 1197 a23e
00000090: d3a6 943d 88c3 cc3e 1509 853d f8b7 1ebe
000000a0: 0297 063e 0820 0fbe cc88 533e 5cda e13e
000000b0: c6f2 903e 723e 60be e20b 903e f0eb a23d
000000c0: 7700 813e 79d0 9bbe 73c6 fbbe 88b3 3dbe
000000d0: 29fa c4be 4c15 d63e 70e2 1b3e e17c 553e
000000e0: 6098 1a3e 06ba 0fbc 8d80 cb3e 2e03 b4be
000000f0: a1a2 083d 85a5 aebe e445 223e 4cd0 2bbe
00000100: aceb 233e 5a09 c6bd 849e da3e e710 93be
00000110: 5644 9cbe cb77 97be 2f49 eb3e b331 313e
00000120: 98e4 f73e 7312 d4be d0b1 febe 31cc c7be
00000130: a611 acbe e93d 543e 7761 3a3e 95b0 da3e
00000140: 5e60 83be 17e1 afbe 5b97 8b3e 991c 4abe
00000150: 719e 9d3e 69ab eabd ceb0 973e b76c c2be
00000160: b48b 82be d331 1d3e 1d38 d53d 0666 08be
00000170: 0ed7 933e 8411 ac3e 9dbc babe ed5d 89be
00000180: 2203 ea3e f4c3 2cbe 2c83 35be f953 f7be
00000190: 0cc6 93be 0ddd f93d 596b 95bd 578c bdbe
000001a0: 4028 403c 60c5 adbe fafc d7be 3af8 8cbe
000001b0: 1378 ddbe 6512 a2be ba8f 023f 294d d53d
000001c0: 1cc7 1d3e f82d efbe 0bbd a7be 146c 2abe
000001d0: 9527 a83d 7a73 e3be f252 68be fd2d 9ebe
000001e0: 4d82 34bb 59d4 3fbe a9ba 18bd d92c adbe
000001f0: a89b aebe a622 95be 5b9e 35be 14b0 ccbe
00000200: 8771 d33e 6d29 cebd 0b16 e03e 71bc 1a3e
00000210: 2676 d7be a8ad b23e 4f29 05be d517 41be
00000220: 2f85 d3be 04e5 00bf c591 0d3e ef50 d7bd
00000230: 89c0 493e 3b90 cfbe 47a0 b93e 1975 bfbe
00000240: 636d a3bd 6d50 d63d a88a 863e 622b d43e
00000250: 36c5 ed3e 2f9d ccbe 73eb f53d 06ea 5abe
00000260: 6ee5 7dbd f7c7 bfbe b823 ea3e 0d3b bdbe
00000270: b026 863e cae3 303e a498 1d3e e699 8ebe
00000280: 21fa eb3e 4a71 d63d 1236 733d 650f e6be
00000290: d8c6 5a3e e1cd 92bd 40cb 61be 12fb de3e
000002a0: dc43 e33d dc1c 8bbe 0baf 7bbe b2d2 bfbc
000002b0: 78bc 8e3e b164 fabd 9633 8fbe 2bf1 2ebe
000002c0: 550c c0be 432c 3a3e f007 c63e a12c f4be
000002d0: 6ac0 ea3d cf33 853e d53c a93d d926 3ebe
000002e0: a3a0 883e 9ff0 893e 1148 443e 5644 c0bd
000002f0: 8ad4 01be efc0 683d 587d b5bd 8ff8 12be
00000300: 63a6 a43e 217b dc3e a1e7 25bd 494b d5bd
00000310: 0a4b 263c dac5 f9bc 4107 f23d e88b 103e
00000320: fe14 e7be 280d 3abe a231 da3e 6d81 513e
00000330: 0524 d0bc 071c 9ebe ba6f a0be d9d0 e5be
00000340: 8ce4 26be 7ecb 343e 705c a73e 9863 6c3e
00000350: dbe1 dfbe f0b2 9bbe e35f a7bd d3df f53e
00000360: 1821 943d d097 04be 7cd2 533e e802 43be
00000370: 03bc a9be 8a35 b83e 0bc9 6cbe c119 dbbd
00000380: 71f4 febe b0d1 a93e 988f c03e 2516 3b3e
00000390: d406 b2be dcaa 00bf 19fe d4be 3f6c be3e
000003a0: 6cd0 753e 6a4e d83e 9904 883e 4c95 013e
000003b0: 8071 a0bb e37d c7be 9370 e0be 0273 efbe
000003c0: cbfe 513e 2075 7ebe 4e14 d4bd 6389 93be
000003d0: 357b babd 2e88 b2be 8e40 abbe d611 223e
000003e0: c788 1fbe a265 9a3e a44d 2fbe 7b3d c1be
000003f0: b968 babd 9b63 78be 61f0 1dbe 9dfd f4be
0.38921803 0.41309813 -0.12438621 0.44881555 -0.10955179 0.100895345 -0.24342752 0.29364133
0.44525594 -0.36623648 0.4336981 0.095438726 0.36940444 0.06771529 0.24109405 -0.0705955
0.37806183 0.07369744 -0.22452219 0.13677204 -0.23036832 -0.058636427 -0.20307916 0.33168548
-0.3870035 -0.22752716 -0.14880395 -0.31007296 0.046939846 -0.49561483 0.4458222 -0.42587927
0.38348216 0.080019556 -0.16543946 0.3175588 0.07258382 0.39992929 0.06495873 -0.15499866
0.13143542 -0.13977063 0.20657653 0.44111907 0.2831022 -0.21898821 0.28134066 0.07955158
0.25195667 -0.3043249 -0.49174842 -0.18525517 -0.38472107 0.41813123 0.15223098 0.20848419
0.15097189 -0.008772379 0.39746514 -0.35158676 0.03335822 -0.34110656 0.15846974 -0.16778678
0.1600787 -0.096697524 0.42699063 -0.28723833 -0.30520886 -0.29583582 0.45954272 0.17304115
0.4841659 -0.41420326 -0.49745035 -0.39022973 -0.33607215 0.20726742 0.18201242 0.42712846
-0.2565946 -0.34351417 0.27263913 -0.19737472 0.30784944 -0.11458475 0.2962708 -0.37973568
-0.2549721 0.15351038 0.104110934 -0.13320169 0.2887501 0.33607113 -0.36472026 -0.26829472
0.45705515 -0.16871625 -0.1772582 -0.48306254 -0.28862035 0.12200365 -0.072958656 -0.37021133
0.011728346 -0.33939648 -0.42185193 -0.27533132 -0.43255672 -0.3165466 0.5100056 0.10415108
0.15407985 -0.4671476 -0.32761416 -0.16642791 0.08210675 -0.4442404 -0.22687891 -0.3089446
-0.0027543486 -0.18733348 -0.037287388 -0.3382328 -0.3410313 -0.29127997 -0.17736189 -0.39978087
0.41297552 -0.10066495 0.43766817 0.15110947 -0.42082328 0.34898114 -0.13004039 -0.18856747
-0.4131255 -0.5034945 0.13825138 -0.10513484 0.19702353 -0.40539727 0.36255094 -0.37394026
-0.07979848 0.10464559 0.2627766 0.41439348 0.46439523 -0.39963672 0.12007799 -0.21378335
-0.06198638 -0.3745725 0.45730376 -0.36959115 0.2620139 0.17274395 0.15390259 -0.2785179
0.4608927 0.10470827 0.059377737 -0.4493362 0.21364915 -0.071681745 -0.2205019 0.43550926
0.110969275 -0.27170455 -0.24578492 -0.023415897 0.27878165 -0.122262366 -0.27969044 -0.17084186
-0.3750941 0.18180947 0.3867793 -0.476903 0.11462481 0.2601609 0.08263556 -0.18569507
0.26685056 0.26941392 0.19168116 -0.09388034 -0.12678733 0.05682462 -0.08861798 -0.1435263
0.32158193 0.4306269 -0.0405041 -0.1041475 0.010149727 -0.03048985 0.1181779 0.1411587
-0.45133203 -0.18169081 0.42615992 0.20459528 -0.0254078 -0.30880758 -0.3133524 -0.448859
-0.16298121 0.17655751 0.32687712 0.23084867 -0.43727002 -0.30409956 -0.08172586 0.48022327
0.07232875 -0.12948537 0.20685762 -0.19044077 -0.33151254 0.35978347 -0.23123567 -0.106982715
-0.4979587 0.3316779 0.37609553 0.18270166 -0.34770834 -0.5026071 -0.4160011 0.3719196
0.24005288 0.42247325 0.26566008 0.12654608 -0.0048963428 -0.3896323 -0.43835887 -0.46767431
0.20507352 -0.24849367 -0.10355435 -0.28815755 -0.09105531 -0.34869522 -0.3344769 0.15827116
-0.1557952 0.30155665 -0.17119461 -0.37742218 -0.091020055 -0.24256746 -0.15423729 -0.47849742

conv1.bias f4 [128]
00000000: bdda 1d3e 964b c3be 8d1a a0be 7cd5 d4be
00000010: f8f2 dd3e a66a f2be cb3d bf3e 432e 91bc
00000020: e283 59bd 1738 a33e 4ea1 43bd 22bb 9f3e
00000030: 3706 b93e a11e dabe 355e 433e f7dc c13d
00000040: 8b07 dd3d e09e a73d 7c40 103e 41cc 6bbe
00000050: 4fb5 81bd 7fff f13e 8681 ad3e dcf2 c2bc
00000060: 2e27 f1be 9a88 c63c b71e afbe 2e9e d13e
00000070: 3f9c 9bbe 1dc8 dbbc 401a e3bd 5965 b43d
00000080: 238c f33e 35fe 443d b629 923e def5 c23e
00000090: 7fcd ce3e 2152 29be 3de8 debd 8f58 7a3e
000000a0: 2a57 03be 5384 6b3e 1e1e eabd 7b7f b0be
000000b0: ff05 523e 0e1a a13d 9361 683e 4413 003f
000000c0: 961c ae3e 3537 f43e 13c1 f03c 1b59 d8be
000000d0: d06e afbe 64e3 a0be 7e99 e1be ef2d 7abe
000000e0: ac27 edbe f754 e7be fe2f 97be d05d f7be
000000f0: 078f 9bbe 62bd 3f3e 336e d23e 2824 16be
00000100: 6fd5 0fbe 8e17 893e b18f 78be 2f6f 6dbe
00000110: e188 9e3e 160f ddbe 4ca8 853d e229 e13e
00000120: dd72 a33d 65f7 073e afc7 96be e08a 1dbb
00000130: ba83 bf3c a800 f43d db6a 4a3e 3037 df3e
00000140: 75fa c3be 3674 873c b5cd 7dbe ee38 c8be
00000150: 0bdc febc 44b3 dfbe 9d07 b33e d5f2 663d
00000160: ec21 8cbe f53d 853e 9675 edbe 754a 4bbe
00000170: aada b4bd 9493 dabe 4a79 9ebe 6447 a4bd
00000180: b5f6 bf3e 7146 f43e e0a4 9e3e 07ec 98be
00000190: 156a a5be c5a9 dd3e 0c6e 313e 10eb 0e3c
000001a0: 63d3 8a3d 4c77 cabe b9a1 2bbe 5b88 f73e
000001b0: bfb8 fabd 0860 bdbc 9156 d4be 8123 8fbe
000001c0: 804a 21bc 1b0f a1be 4372 88bd c29b 4f3e
000001d0: 2988 f8be 9bb2 1e3e a10f adbe d497 7cbe
000001e0: 449a 493e 3cd1 cb3e d985 10be 1c36 52be
000001f0: fe77 e7be 5212 88be b916 e0be e084 f3bd
0.15415473 -0.38143605 -0.31270257 -0.41569126 0.43349433 -0.4734699 0.37351832 -0.017722255
-0.05310429 0.3187873 -0.047761254 0.31197459 0.36137554 -0.42601493 0.19078906 0.09465974
0.10792454 0.081846 0.14087099 -0.23027135 -0.0633341 0.4726524 0.3388788 -0.023797445
-0.47100204 0.024235059 -0.3420312 0.40940994 -0.30392644 -0.02682882 -0.11088991 0.08808393
0.47567853 0.048093993 0.28547448 0.38078207 0.40391156 -0.16535236 -0.1088414 0.24447845
-0.12826219 0.22999696 -0.11431526 -0.3447226 0.205101 0.07866298 0.22693472 0.50029397
0.34006184 0.4769837 0.02938894 -0.42255482 -0.3426423 -0.31423485 -0.44062418 -0.24431585
-0.4631933 -0.4518201 -0.29528803 -0.4831376 -0.3038256 0.18724588 0.410997 -0.1466223
-0.14046262 0.26775783 -0.24273564 -0.23186944 0.30963805 -0.43175572 0.06526241 0.43977267
0.07980893 0.13277967 -0.29449221 -0.0024039075 0.023378242 0.11914188 0.19767325 0.43596792
-0.3827702 0.016534906 -0.24785502 -0.39105934 -0.031110784 -0.43691456 0.34966746 0.056383926
-0.2736963 0.26023832 -0.46378773 -0.19852622 -0.08830769 -0.42690718 -0.3095191 -0.08021429
0.3749291 0.47709993 0.30985165 -0.29867575 -0.32307497 0.43293586 0.17327136 0.008723035
0.067786 -0.3954414 -0.16760911 0.48346218 -0.12242269 -0.02311708 -0.41472295 -0.27956775
-0.009844422 -0.31456837 -0.06662419 0.2027426 -0.48541382 0.1549782 -0.33800986 -0.24667293
0.19687754 0.3980807 -0.14113559 -0.20528454 -0.45208734 -0.26576477 -0.43767336 -0.11890578

conv2.weight f4 [32, 128, 2]
00000000: a4e1 b43c b6ca 4bbd 5e84 5f3d b09c 203d
00000010: 0488 66bd 353a b1bc d0fd a63c 0064 52bc
00000020: 875f 97bb 188d d0bc cc9f 4d3d 821a 0fbd
00000030: 7f5c 443d 5f72 bb39 8a99 503c bba2 4b3d
00000040: a2f8 1bba 1e4a d7bc 547a f0bb 894d 5d3d
00000050: feb0 14bd b8de c13c 718a 5fbd eb25 213d
00000060: f1d7 983c 2da1 a5ba b090 083d e218 093c
00000070: 71c5 183d b7f2 3bbd ca7d 0cbc 9708 e63c
00000080: 64dd 883d 06a4 183d a366 1abd e5b6 603d
00000090: b50e a7bc c63f 9ebc 9d61 43bd 6585 9fba
000000a0: 5431 223d cc81 8a3b f782 09bd 6a3b b93c
000000b0: 6b84 9ebc 100b 6d3d 0b0a 7dbd de7a dbbc
000000c0: d42f 77bd 1ca4 c9bc 5a35 4e3c 98f4 5a3d
000000d0: 5efc 1d3b c6ad 5a3d 56f0 863c 0891 223d
000000e0: faf0 2d3d b28e 373d 9916 29bd 0193 523d
000000f0: f738 f43c 5670 17bd 6b2d 15bd 6b7c 70bd
00000100: b7a8 c03c 3e69 30bd c86c ae3c 783e 793c
00000110: 6768 62bd 2a76 803c e56e 22bb d522 003d
00000120: c742 343d 30c4 5ebd 2214 683d fe35 513d
00000130: 712c b43c bef2 70bd eb9e a0bc a891 68bc
00000140: 8fe8 babc e2af f43c b201 d63c 15f3 593d
00000150: 5bdd fbbc 839b 643c ad5a 8a3c 0323 65bd
00000160: 17b6 7fbd 504a 0abd 8f4a 343d 4000 65bd
00000170: f56d 41bd 4137 2d3d 4da0 093d b4f0 523d
00000180: 5042 2dbd 1bac 24bd a0f7 173d 2a43 723d
00000190: 4bad 353d d503 7d3c 566d 493c 4c56 523d
000001a0: 61f9 f3bc 5f7d a0bc 2b3f 303d a7be 31bd
000001b0: 6029 0dbd b2e0 3a3d 1309 4e3c c06f 523c
000001c0: ff86 83bc 6e98 033c a520 493d c840 3abd
000001d0: bc9f 3c3c 5865 213d a025 53bd c618 573d
000001e0: b387 17bd 007e aabc c4d9 a4bc 35da 32bd
000001f0: 785b 83bd 2739 073d a184 0a3c e314 88bd
00000200: 5e2b eebc b053 943d 43ab ea3c 2791 f33c
00000210: 4c93 f0bc 8fe7 93bc c833 91bc 856e 9ebc
00000220: e0d1 0fbd 2f55 503c 6e8d 07bb 4895 83bc
00000230: fbab 733b 5f44 f1bc d3e8 843c 3874 c33c
00000240: 9bb6 13bd 07ae 82bd 6ee5 ec3c 0260 373c
00000250: 671e 20bd 164f 583d 0f5b 12bd 6cfc 0e3d
00000260: 38f5 083d 217c 51bd 6684 4a3d a305 48bd
00000270: fea5 e8bc 6153 a1bb be62 0ebd af04 8c3d
00000280: 3a39 48bc bd4f d03c d349 80bd afd6 f03c
00000290: 9e0d a2bc a5dd 50bd f075 843a 2522 b63c
000002a0: 6640 3b3d 2029 3ebd 023c 1bbd 7fe5 fe3b
000002b0: c3d3 933c a24b cc3c 3403 2d3d 9941 debb
000002c0: 478e f13c 0c21 3d3d 06f6 56bc 1c0a 453d
000002d0: ffea b43c b66d 403d 3545 2ebd a4a1 13bd
000002e0: f93d 13bc 5b7c 3b3c e4e5 003d 8755 2abd
000002f0: e6c8 1b3d 8897 6cbc b6ce 433d 1639 d13b
00000300: 052d 69bd 0ad7 12bd 6167 38bd 217c 013d
00000310: 28bd 1dbd 503e 3fba 2721 c43b f30e 2bbd
00000320: 43ab bd3c 2b2b 5ebd 6d70 49bd 2b00 79bd
00000330: 09a3 bebc 2d6f dabc e7fa 923c 7533 48bb
00000340: 5cc3 b53c 0d79 4e3d 856c 693c 0e4c 04bd
00000350: a5cb 85bd e72f 8b3c 0fdc e4bc e766 0e3d
00000360: 0368 323d 8cd8 df3c fa2f 693d b8d8 6c3d
00000370: 987c 623c a58f 38bd 4bfd 573d 05f0 fabc
00000380: 36d2 0ebd 8a67 413d dcad 413d 2ebd 823c
00000390: ef2a 78ba 56ec 66bd c3d8 06bc 8937 713d
000003a0: 3ee5 023c 9988 09bb 0a6e 5cbb ee6a 52bc
000003b0: 2cc3 443d 2c12 653c 8188 083d 63f7 95bc
000003c0: 76a8 ca3c d9e8 c33c 1d72 3a3c db71 253d
000003d0: 573b 4b3d a6bd 893d 80ce 443d acea 82bc
000003e0: 1abc 58bd 8034 3b3c 79d3 d23b cfed 44bc
000003f0: 4079 2bbc 80a5 403b 1065 193d 7847 3c3c
0.02208025 -0.049753867 0.054569595 0.03921193 -0.05628206 -0.0216342 0.0203847 -0.012841225
-0.004619542 -0.025457904 0.050201222 -0.03493739 0.047939774 0.00035752633 0.012731919 0.04971574
-0.000594983 -0.026280459 -0.0073388014 0.05402902 -0.036301605 0.02366577 -0.054575387 0.039342802
0.018657656 -0.0012636535 0.03334111 0.008367749 0.03729767 -0.045885768 -0.008574912 0.028080268
0.06682852 0.0372658 -0.03769554 0.05486192 -0.020392755 -0.019317519 -0.047700513 -0.0012170492
0.039597824 0.004226899 -0.033572163 0.022611339 -0.019350251 0.05787188 -0.061777156 -0.026791986
-0.060348347 -0.024614386 0.012585962 0.05345592 0.0024106721 0.05338838 0.016472023 0.039689094
0.04246614 0.04481382 -0.041281316 0.051409725 0.02981232 -0.036972366 -0.036420267 -0.058712404
0.02351795 -0.043069117 0.021292105 0.015212648 -0.055275347 0.015681345 -0.0024785337 0.03128322
0.044008996 -0.054386318 0.056659825 0.05107688 0.021993848 -0.058825247 -0.019607028 -0.014194883
-0.02281597 0.029869024 0.026123855 0.053210337 -0.030745199 0.0139530925 0.01688894 -0.055941593
-0.062429514 -0.033762276 0.044016417 -0.05590844 -0.047224004 0.042289022 0.03360014 0.051499084
-0.04229957 -0.040203195 0.037101388 0.059146084 0.04435472 0.015442808 0.012294134 0.05135183
-0.029781999 -0.019591032 0.04302899 -0.04339471 -0.034463286 0.045624442 0.012575406 0.012844026
-0.016055582 0.008031948 0.049103398 -0.045471936 0.011512693 0.03940329 -0.051549554 0.05251386
-0.036994647 -0.020812035 -0.02012337 -0.04366513 -0.06413931 0.03301349 0.008454473 -0.06644609
-0.029073413 0.072425246 0.028646117 0.0297323 -0.029367112 -0.018054752 -0.017724887 -0.01933981
-0.03511226 0.012715622 -0.0020683664 -0.016062394 0.0037181366 -0.029451547 0.0162243 0.023859128
-0.036062818 -0.06380849 0.028917994 0.011192324 -0.039091494 0.052809797 -0.03573137 0.034908697
0.033436984 -0.05114377 0.04944267 -0.0488335 -0.028399464 -0.0049232696 -0.034762137 0.06836831
-0.012220675 0.025428647 -0.06264081 0.029399244 -0.019781884 -0.050992627 0.0010105949 0.022233078
0.045715712 -0.04642594 -0.037899025 0.007778823 0.018045312 0.024938408 0.042239383 -0.006782722
0.029486788 0.046174094 -0.01312018 0.048105344 0.022084711 0.04697963 -0.04254647 -0.036042824
-0.008986943 0.011443223 0.03146924 -0.04158547 0.03803339 -0.014440425 0.047804557 0.006384979
-0.0569277 -0.03584961 -0.045020465 0.03161252 -0.03851047 -0.0007295357 0.0059853974 -0.041762304
0.023152953 -0.054240387 -0.049179483 -0.060791176 -0.0232711 -0.02666434 0.017941905 -0.003054825
0.022187881 0.05040841 0.0142470645 -0.032299094 -0.06532983 0.016990615 -0.027936963 0.034766104
0.043556225 0.027324937 0.05693052 0.057823867 0.013823651 -0.045058865 0.052731793 -0.030632028
-0.03486844 0.047217883 0.047284946 0.015959349 -0.0009466847 -0.05637773 -0.008230391 0.058890853
0.007989226 -0.002098596 -0.0033634924 -0.012842877 0.048037693 0.013981383 0.033333305 -0.01830644
0.024738532 0.023914741 0.011379746 0.040391784 0.049617138 0.06725626 0.048048496 -0.01598104
-0.052913763 0.011426091 0.006433901 -0.012019589 -0.01046592 0.002939552 0.037449896 0.011491649

conv2.bias f4 [32]
00000000: 1bc9 7ebc 4288 2dbd 43ee 36bd 4caa 5cbc
00000010: 27d7 393d a67e a23c 4cf3 aabc 1016 5ebd
00000020: 7102 19bd 783f 583c 8442 573d 32d7 033d
00000030: c8e3 02bc ab30 003d dca0 3b3c b8b8 0c3c
00000040: b53a ce3c 3f52 a1bc 7cb4 893c 706c b43a
00000050: 4b68 b23c c317 2bbc 6ce0 1d3d 04ea 6abd
00000060: ace9 3c3d b7ce 4ebd ebb0 2cbd 5e69 1dbd
00000070: cdc4 dbbb 87ed 0fbc 3a7e 74bd 2f67 1d3d
-0.015550877 -0.042366274 -0.044660818 -0.013468336 0.0453712 0.019835781 -0.020867966 -0.05422026
-0.037355844 0.013198726 0.05255367 0.032187648 -0.007988878 0.031296413 0.011451926 0.008588962
0.025174478 -0.019692538 0.016809694 0.0013765227 0.021778246 -0.010442677 0.038544104 -0.05735208
0.046121284 -0.050490107 -0.04216091 -0.038430564 -0.00670681 -0.008784658 -0.05969069 0.03842848

conv3.weight f4 [32, 128, 2]
00000000: 88eb 7b3c 5c21 7a3d 84b1 36bd 6adb 4dbd
00000010: 700f 763c 9837 453d e2e8 2a3d b8b1 cf3c
00000020: c037 2c3c d836 ff3c d8c4 cbbc dc56 7fbd
00000030: bc1f 55bd 34b8 23bd a0a9 643c 3234 653d
00000040: da35 253d e617 27bd d4c5 8e3c 5874 623d
00000050: c06a c93a 48c9 3ebc 30ae 0abd 00d4 94bb
00000060: 64a4 403d 5891 90bc 50a4 1abc 546b f83c
00000070: a845 c4bc 2489 ecbc a8ef 2c3c 245a 393d
00000080: 1075 da3b a0f6 24bb 945c 4bbd b6dd 183d
00000090: 60eb 3a3b 1461 e1bc 8c3a 61bd 80eb f2bc
000000a0: dce8 33bd d8b0 513c f496 3b3d 686a 4abc
000000b0: f8d1 1b3d 189c 59bc 40ad f3bc b847 6abd
000000c0: ce8c 2bbd c42c 403d c26c 2c3d fc00 773d
000000d0: e0a1 cebb 9c12 ad3c 105b fbbb 4a62 7d3d
000000e0: 6821 4cbd 0c06 8bbc 5475 75bd b03f ca3b
000000f0: 964d 47bd d68a 33bd 78d0 6c3c 36b4 7e3d
00000100: de5f 553d 44e3 2f3d 2872 7dbc 0055 f7ba
00000110: a623 66bd 8e16 2c3d ace3 8b3c 6c4b 593d
00000120: 14e0 78bd 58b9 79bc 58df 24bd cee9 43bd
00000130: 3232 18bd 50c1 a13c 302f 2a3d a037 e73c
00000140: 005f afbc 14da e13c 2c25 7c3d 404e 483b
00000150: 043f b8bc 5425 4abd 54f7 343d b004 6abc
00000160: d4d8 48bd be0a 143d e824 4c3c d0a6 cebc
00000170: 2cfc 7bbd 8874 003c a8a2 97bc 9091 31bc
00000180: 80cc aabc 288f 523d 70e2 073d ccf4 4a3d
00000190: 584e c13c 681d 923c 58a6 7c3d 00aa 68b9
000001a0: a22b 133d 5c31 d03c 1c01 75bd 5cea 2d3d
000001b0: 90d5 c8bb 9cdc 2cbd 5285 2c3d f456 4fbd
000001c0: c410 f03c a294 52bd b4da 92bc 4c2d 70bd
000001d0: 0a15 373d d02a 7d3c 10e5 503d d043 9c3c
000001e0: 50de fdbc c0f9 193c 3c3e 2d3d d8eb 45bd
000001f0: 4ec7 2abd 643b 82bc 22ef 1fbd a006 3abc
00000200: 986c 723d 6059 0e3d 548d 4fbd da22 0abd
00000210: c870 4d3d b010 9dbb 3096 d7bc d832 483c
00000220: 8093 22bc 6c80 ac3c 00ea 963a 828f 113d
00000230: 30ec 0c3d e4c0 b33c c497 9e3c 607b 83bc
00000240: f6ee 6cbd 602b c5bb 106e 42bd 08c8 4cbd
00000250: b66b 61bd d8e3 7fbc a850 3dbd 5022 2d3c
00000260: 341a dd3c 8216 183d b216 77bd 0466 573d
00000270: d857 983c e8be 4f3d 8815 f83c 0027 3a3c
00000280: 488b 44bc 242c 563d de9e 26bd 7eaf 473d
00000290: e049 5f3d 983b 273c 1092 dbbc 52cd 4ebd
000002a0: 8022 61bb 4488 593d a057 3d3b 00e0 80bc
000002b0: 74a0 febc 8009 993b 5893 0d3d 807d 473c
000002c0: d88f 303c 0627 31bd a8c7 f73c 10de d43b
000002d0: 509d 7bbd 1eef 543d c2cd 223d 006e 003a
000002e0: 7043 4abc 2cef 653d a425 7e3d c0e0 263c
000002f0: 1ea4 6d3d d472 d83c c857 f43c 0097 72bb
00000300: 0098 95bb 52b8 233d b841 e0bc 40dc 36bd
00000310: 42d7 1f3d 88c5 75bc d6bd 343d c824 2abc
00000320: 94f4 1bbd c09b 8aba f01d ecbb c00a 6b3c
00000330: 0881 45bd a8bf 58bd a0d0 533b 2810 673d
00000340: 0ed3 21bd 76c7 00bd f075 c33b d0b6 3f3d
00000350: 5e30 443d b0d0 55bc 40bb 56bb c48d 49bd
00000360: d207 7a3d 1288 1b3d 74e8 823c 10b0 78bd
00000370: e6b5 103d de3d 10bd 6077 2a3b 5ca9 f53c
00000380: a021 23bb 10ba f9bc 90ea 2c3d bc83 2d3d
00000390: e080 c73b fafb 1fbd 849e 04bd b2f6 65bd
000003a0: f003 09bd 28ab 64bd 80b7 b4bb cece 35bd
000003b0: 06cb 113d 6026 4fbd e27d 30bd e4be 1dbd
000003c0: 7886 86bc e05d c83c 663e 383d 88e8 7d3d
000003d0: 5038 74bc 2068 703c 3031 903b 9c30 0d3d
000003e0: 449a f03c dc84 163d 029e 2e3d b81c 553d
000003f0: 8041 513b 0636 333d aed8 0fbd a00c 57bc
0.015375979 0.06106697 -0.044602886 -0.050258078 0.015018329 0.04814872 0.041726 0.025353298
0.010511339 0.031154081 -0.024874136 -0.062338695 -0.052032217 -0.03997059 0.013956457 0.05595798
0.04033456 -0.040794276 0.017428316 0.055286735 0.0015366897 -0.011644669 -0.033857524 -0.004541874
0.047031775 -0.01764743 -0.009438589 0.030324616 -0.023958996 -0.028873987 0.010555185 0.04525198
0.006666787 -0.0025171414 -0.049648836 0.037320815 0.0028521642 -0.02751211 -0.054987475 -0.02965331
-0.043923244 0.0127985105 0.045798257 -0.012354471 0.03804204 -0.013281845 -0.029745698 -0.057197303
-0.04188233 0.04691769 0.042095907 0.060303673 -0.006305918 0.021127038 -0.0076707676 0.061861314
-0.049836546 -0.016970657 -0.059926346 0.006172143 -0.048657976 -0.043833576 0.014454 0.06218358
0.05209338 0.042941347 -0.0154691115 -0.0018869936 -0.05618634 0.042013697 0.017076336 0.053050444
-0.060760573 -0.015241943 -0.04025206 -0.047830395 -0.037157245 0.019745499 0.041548908 0.028224766
-0.021407604 0.027569808 0.061558887 0.0030564219 -0.022490986 -0.049352005 0.044181183 -0.014283344
-0.04903491 0.036143057 0.012459971 -0.025226027 -0.061519787 0.007840283 -0.018510178 -0.010837927
-0.020849466 0.051406056 0.033174932 0.049549863 0.023596928 0.017836288 0.061682075 -0.00022188574
0.035930283 0.025414161 -0.05981551 0.04245983 -0.0061289743 -0.042202577 0.04211933 -0.050620034
0.02930487 -0.05141128 -0.017926551 -0.05863695 0.0446978 0.015452102 0.0509997 0.019075304
-0.030989796 0.009397924 0.04229568 -0.04832062 -0.041693978 -0.01589746 -0.039046414 -0.011354119
0.059185594 0.034753203 -0.05067189 -0.033724643 0.050156385 -0.004793249 -0.026316732 0.012219153
-0.009922862 0.02105733 0.0011513829 0.03553725 0.034404933 0.021942563 0.019359477 -0.01605004
-0.05784508 -0.0060171336 -0.047468245 -0.049995452 -0.05503436 -0.015618287 -0.046219498 0.010567263
0.026990034 0.03713084 -0.06032438 0.052587524 0.018596575 0.05071917 0.030283704 0.011361837
-0.011996098 0.05228819 -0.04067885 0.048751347 0.054513812 0.010207079 -0.026803046 -0.050488777
-0.003435284 0.05310847 0.002889134 -0.015731812 -0.03108237 0.004670322 0.034564346 0.012175918
0.0107764825 -0.043250106 0.03024657 0.0064961985 -0.06142932 0.051985852 0.039747007 0.0004899204
-0.01234518 0.056136295 0.062047616 0.0101854205 0.058017842 0.026421942 0.029827014 -0.0037016273
-0.004565239 0.039970703 -0.027375087 -0.04464364 0.039023645 -0.015000708 0.044126354 -0.010384746
-0.038075045 -0.0010574982 -0.0072057173 0.014345825 -0.048218757 -0.052917153 0.0032320395 0.056411892
-0.039507918 -0.03144022 0.005964987 0.046805203 0.04789769 -0.013050243 -0.0032765418 -0.049207464
0.061042614 0.037971564 0.015979983 -0.06071478 0.035329722 -0.03521525 0.0026011094 0.029987983
-0.0024891868 -0.03048423 0.042215884 0.04236196 0.006088361 -0.039058663 -0.032377735 -0.05614347
-0.03345102 -0.05582729 -0.005515039 -0.044386677 0.03559401 -0.050573707 -0.0430888 -0.038512126
-0.016421542 0.024458826 0.044981383 0.061989337 -0.014906004 0.014673263 0.004400395 0.034470186
0.029370435 0.0367478 0.042631157 0.05202934 0.003192991 0.043752693 -0.03511875 -0.013125569

conv3.bias f4 [32]
00000000: c400 51bd d86e 14bd 382f 4d3c 3068 713d
00000010: cc3f 313d c875 d0bc a0f7 6d3c 442f 303d
00000020: 805d 553c ac5b 51bd 801a fb3b 9084 d03c
00000030: c0a5 273c 52d4 693d 5ca3 553d 4a0b 0fbd
00000040: 78a2 423d e61c 65bd 7a55 11bd d098 cf3c
00000050: c094 f83a 4214 5d3d 9650 183d 0025 5abc
00000060: 2ecf 743d dab8 37bd 20d6 3e3c 9467 a33c
00000070: 3a1e 483d ae78 7a3d a8ab f93c 642c e4bc
-0.05102612 -0.03623852 0.012523465 0.05893725 0.043273732 -0.025446787 0.01452437 0.043013826
0.01302278 -0.051112816 0.007663071 0.025453836 0.010232389 0.05708725 0.052157745 -0.034922875
0.047518224 -0.055935763 -0.035481907 0.025341421 0.0018965229 0.053974397 0.037186228 -0.013314486
0.059767894 -0.044854023 0.011647731 0.01994685 0.04885695 0.061150245 0.03047736 -0.027853198

lin1.weight f4 [2, 320]
00000000: e00a 613d c410 3b3d 7a41 733a 85ea 103d
00000010: e5c7 f639 1e6a 36bc c89c 653c 55c3 123b
00000020: 6621 09bc 860b a03c 3848 c3b9 9950 1dbd
00000030: fbc8 27bd 7a7a 963c d853 b2bc 9e33 b33a
00000040: f434 4a3d 1aec 283d 776c fe3c a3db f33c
00000050: 472c 023d 34eb 33bd cd6a 383d cf4f 46bd
00000060: 3570 f9bc 7a58 82bc 00e8 7c3d 877e 1d3d
00000070: 5ff7 b93c 2eda d23c 6484 83bd 0ecd 80bd
00000080: 3a60 253c 8fc2 40bc 968d 1a3d 6e21 e8bc
00000090: c26e 833d e66f 1bbd ef80 f03c 31d0 9e3c
000000a0: 2212 8fbc 3e8e 7e3d 2cbf 283d 49e7 ddbc
000000b0: 4319 1cbd efeb ed3c 40e2 e0bc 2543 15bc
000000c0: 0312 d43c a294 203d 3a53 dfbc 5458 333d
000000d0: c530 ab3c 4a67 ba3c b1c2 aebc 3f18 e23c
000000e0: c24d 00bc 27e2 0d3d a99c ba3c 4c3c 113d
000000f0: 5fb8 f8bb 20d1 143d 7a26 303d 6439 4b3c
00000100: 4c14 67bb d3a0 15bd a85c ecbc 96e3 033d
00000110: 595b 0cbd e034 e1bc 9e91 e93c ffbc e8bc
00000120: 211c 31bd 048c 4b3c 1aa5 c53c 398f 4fbd
00000130: 1d30 ea3b a893 30bd cf35 c13c 8885 fa3c
00000140: b179 f13c 7bb4 863d 4774 6e38 8aa2 b4bc
00000150: a7fc 8e3b 8d7a 9b3b 3a5c 19bd 765c 48bd
00000160: e563 7abc fd56 0a3d 6383 c13c 1acc cabc
00000170: c7a9 413d 772e 2abd fe97 d4bb 79ac 5f3c
00000180: 4fee 24bd 9d65 503d 5e14 e1bc 3d97 073d
00000190: c78c 133b 3f8d 00bd 5b0a 563d 7adb cbbb
000001a0: fa06 233c d55d 573d 69a0 57bd 273c 383d
000001b0: 7efd e1bc ecd7 39bd 8fb5 fe3c 5c1e 8cbc
000001c0: bcbf 36bd f484 e0bc d402 143d abac c83c
000001d0: cfe1 33bb 162e eb3c ddee 353c 0c71 2bbd
000001e0: 9ceb 2f3c 0f0b 233d 0da9 abbb bf51 d1bb
000001f0: f6d8 603d d9ed 82bc 7f6f 553d 837b 483d
00000200: 461e 393d f351 733c 2ae0 533c a26f 6e3c
00000210: 1ceb 43bd f9ed 8abc e45a d3bc 2bd5 93bb
00000220: 4753 edbc 3ece c5bc 148f 3abd f56b 41bd
00000230: 8688 f63c fa1b 893d 2076 28bc b4c9 2abd
00000240: 21e1 fbbc a185 0bbd c5ac 8abd ddb6 143d
00000250: 4b98 373d 4a77 5c3d 16a9 ecbc 2367 17bd
00000260: 057b 5b3d d685 0abd ff61 40bd 0abb 3ebd
00000270: 1063 8b3c 2b75 f4bb c5b3 0bbd a1f9 423d
00000280: e3ec f3bc 8a15 923b 2246 ea3c 799f ed3c
00000290: 862c 463d 97dc d4bb 01b3 ee3c 237e 90bb
000002a0: 968c dc3b 023f 09bd 4612 243d 7a8e 8a3c
000002b0: bfdc 403c 3188 e2bb ade4 953c 3145 67bd
000002c0: 0cb2 3c3d 36ac 433d bec0 123d 87b1 803b
000002d0: 831a 53bd 58cd 6bbc ad9f 35bd 89d4 e1bc
000002e0: ffd6 303d c9e9 ecbb 58cd 603d b9c0 e1bc
000002f0: 92fb cdbc 2605 34bd bec8 903c 1489 8c3c
00000300: 1f25 d03c 31b2 403d a7fb 153d 0c1d 3bbd
00000310: bf9c f83b 2b06 603d fa5c 353d 230b a93c
00000320: 668e 1fbd b5db 74bd d247 2a3d 5daa d4bc
00000330: 5ddf f83c eafb eaba e1b9 adbb 14d5 073d
00000340: 7f33 783d e72f cbbc eee3 0e3d b963 093d
00000350: 7131 a13a 82db 833b 604b f93b f3b6 1d3d
00000360: d8d5 05bd c494 053d 5932 9d3b 2214 083d
00000370: 48de 3bbd c10b 193d b168 3f3d 8054 4f3c
00000380: dd2d 013b f9c7 853c 1151 28bd 65e4 37bd
00000390: 8a9e 393d b30d 3bbd c0d2 5dbc 4ab8 10bd
000003a0: 10dd 56bd c316 b4bc 34f5 333b 954d 28bd
000003b0: b0d1 25bd bf7a 36bd e0b7 87bb 2320 92bc
000003c0: fe57 f23c cae5 85bd 014e 76bd e8ab c8bc
000003d0: da50 883d 1aa2 843d 34fa db3b 552b f6ba
000003e0: 31f8 923c 516f b9bb 09b9 653a ccf7 e6bc
000003f0: 4e42 4bbb e902 613c 2731 1d3d 9ca2 eebc
0.05494201 0.045670286 0.0009279471 0.035379905 0.0004706971 -0.011133699 0.01401443 0.002239426
-0.008369779 0.019536745 -0.00037247106 -0.038406942 -0.040963154 0.018368948 -0.021768495 0.0013671999
0.049366906 0.04124079 0.03105758 0.029767817 0.031780507 -0.04392548 0.04502373 -0.048415955
-0.030449012 -0.01591133 0.06174469 0.038450744 0.022700964 0.025738802 -0.06421736 -0.06289111
0.010093743 -0.011765136 0.037732683 -0.028336253 0.0641761 -0.03794851 0.029358355 0.019386383
-0.017464701 0.06214737 0.04119794 -0.027087824 -0.03811003 0.029043166 -0.027451634 -0.009110247
0.025887495 0.039204247 -0.027261365 0.04378541 0.020897279 0.02275433 -0.02133307 0.027599452
-0.007831039 0.034639504 0.02277978 0.035457894 -0.007590338 0.03633225 0.043005444 0.01240382
-0.00352599 -0.036530327 -0.028852776 0.032199465 -0.034266803 -0.027491033 0.028511818 -0.028410433
-0.043239716 0.012423519 0.024126578 -0.050673697 0.007146849 -0.043109566 0.023585228 0.03058125
0.029476972 0.06577393 5.6851914e-05 -0.02205016 0.0043636146 0.004744834 -0.03744147 -0.048916303
-0.015282606 0.033774365 0.02362222 -0.024755526 0.047281053 -0.04154822 -0.0064878454 0.0136519605
-0.04026633 0.050878156 -0.027475532 0.033103216 0.002251433 -0.031384703 0.05225597 -0.006221232
0.009950394 0.05257972 -0.052643213 0.04497924 -0.027586695 -0.045371935 0.031092433 -0.01710432
-0.044616446 -0.027407147 0.03613551 0.024496397 -0.0027447825 0.028708499 0.011104313 -0.041855857
0.010737326 0.03980547 -0.0052386583 -0.0063879187 0.05489441 -0.015982555 0.052108284 0.048945915
0.045194887 0.014851081 0.012931863 0.0145529825 -0.04783164 -0.016959177 -0.025800176 -0.0045114956
-0.028970374 -0.024146196 -0.045546606 -0.047222096 0.030094396 0.06694789 -0.010282069 -0.041696265
-0.030746998 -0.034062985 -0.067712344 0.036307205 0.044822972 0.0538247 -0.02888922 -0.036963593
0.053584117 -0.033819042 -0.046968456 -0.046565093 0.01701501 -0.0074602566 -0.03410699 0.047601346
-0.029776042 0.004458134 0.028597895 0.029006707 0.048382305 -0.006496023 0.02913809 -0.004409568
0.0067306263 -0.033507355 0.04005649 0.016913641 0.01177138 -0.006913208 0.018297518 -0.05646247
0.046068236 0.047771655 0.035828345 0.003927413 -0.051538955 -0.0143922195 -0.04434173 -0.027567165
0.043173786 -0.007230018 0.05488333 -0.027557718 -0.025144372 -0.043950222 0.017673846 0.017155208
0.025408326 0.047044937 0.036616948 -0.045681998 0.007587045 0.054693382 0.044278122 0.020635193
-0.03895416 -0.05977984 0.0415724 -0.025960142 0.030379945 -0.001792786 -0.0053016995 0.03316219
0.060595986 -0.024803115 0.03488534 0.03354237 0.001229806 0.00402397 0.0076078624 0.038504552
-0.03267464 0.032612577 0.0047972617 0.033222325 -0.04586628 0.037364725 0.0467307 0.012654424
0.0019711175 0.016330706 -0.041092936 -0.04489555 0.04531721 -0.04566736 -0.013539016 -0.035332
-0.052456915 -0.02198351 0.0027459385 -0.041089613 -0.040483177 -0.044550654 -0.0041417927 -0.01783759
0.029582974 -0.065379694 -0.060132984 -0.024496034 0.06656046 0.06476231 0.006713176 -0.0018781224
0.017940613 -0.005659022 0.0008763229 -0.02819433 -0.0031014862 0.013733604 0.038376953 -0.029130273

lin1.bias f4 [2]
00000000: 184d c8bc 3a96 d7bc
-0.024450824 -0.02631675
