src/deep_ant/Models/model_synthetic-cbf.pt (torch, 73799 bytes, 8 tensors)

conv1.weight f4 [128, 2, 2]
00000000: 559f c93e af5d d73e 2a0e 1abe 31f4 dc3e
00000010: b05c e0bd 38a2 ce3d 1045 79be 2858 963e
00000020: e04f e13e 1ec4 bebe 66f6 e03e a32c c93d
00000030: 9422 bd3e 50ae 8a3d 5ce1 763e 6094 90bd
00000040: bd52 c83e 152a aa3d d04b 58be f1b3 1c3e
00000050: ace5 6bbe c02c 70bd fcf3 4fbe aed2 a93e
00000060: e608 bfbe 2162 5bbe 62a4 26be 1de3 a8be
00000070: 90c1 7b3d d31d fbbe 4e19 ef3e a388 ddbe
00000080: 96f4 c43e ac46 ab3d 94db 09be a8b3 ac3e
00000090: 5e0b ab3d a6d7 ca3e 3e7d 903d 6e0a 14be
000000a0: 1139 073e 9e18 1ebe ac39 4c3e 76e0 e53e
000000b0: 8ff4 973e aca3 64be d393 8b3e 20ea 9a3d
000000c0: 7cea 833e 2c3c 95be 6a2b 01bf fc54 44be
000000d0: df78 c3be b5a7 d63e f093 1d3e 9786 513e
000000e0: 7213 243e 7863 a1bc f036 d43e 933d b4be
000000f0: f56a 303d 3a3a bfbe 4ed4 143e af3f 0dbe
00000100: 075a 253e 9fac e1bd e486 e43e 3197 88be
00000110: 6e44 96be 6fc7 a7be 4c4c f53e cee9 313e
00000120: ca86 fd3e 9778 cbbe c6b7 05bf a6e0 c9be
00000130: 05fa a2be 92c0 513e 4a67 3d3e 9573 e73e
00000140: b7a9 82be 34c3 bbbe a48c 993e 3b1a 46be
00000150: 1dac 993e a381 0cbe 5bc9 a03e 6391 b8be
00000160: 2487 81be 63b5 153e de2c f73d b8f5 0ebe
00000170: 4f41 853e 1a3c b93e 3f53 cbbe 841c 7dbe
00000180: f0b6 e73e f4c3 2cbe 2c83 35be 80ea f4be
00000190: 4045 9abe fb49 023e 6929 9ebd 4a79 c8be
000001a0: 4028 403c bf82 acbe 2bcc d6be 3af8 8cbe
000001b0: 1d28 debe 799e afbe f275 073f e383 f93d
000001c0: 1cc7 1d3e 1123 e6be b724 a9be 146c 2abe
000001d0: 18e5 883d a60e dcbe 7e62 6cbe 532b b0be
000001e0: 2c6f 30bb a448 2bbe b874 a3bc bec9 b8be
000001f0: 5e3b b7be b328 8cbe f525 4ebe d44b d2be
00000200: 488a d83e d56c a8bd ca12 f03e e31a 113e
00000210: 82e4 d3be 89bb bf3e b7c7 04be 1f54 58be
00000220: da24 d8be f818 06bf 2823 113e ac4c c5bd
00000230: 322b 343e b870 c9be a290 af3e 4d13 cebe
00000240: 4171 88bd e7db b53d 6da5 933e 6f2d e13e
00000250: 2cb1 f43e 82ef cabe e13c fa3d 3067 66be
00000260: ab0c 83bd c45b bbbe 4afe f63e 89ea b8be
00000270: d8d8 8a3e 0105 463e 9659 0b3e f8f3 96be
00000280: 454b e93e b69b e03d 8a27 783d 4e0b f3be
00000290: fb52 633e 4e70 b7bd 6926 55be 7e39 e63e
000002a0: e153 eb3d 50e2 92be 5f87 7fbe f5f3 dfbc
000002b0: 687e 8f3e 22cf 05be 11a2 93be aa7b 30be
000002c0: d92d bdbe abd6 3e3e f134 cc3e a327 f9be
000002d0: fc2e 023e e518 903e 97f3 8d3d e300 49be
000002e0: cab8 8e3e d2e4 863e 451a 413e 387a d1bd
000002f0: cb70 02be c677 1d3d 266d 89bd 8a64 10be
00000300: 69b5 a13e 28f8 de3e 42b7 f3bc b1a7 c3bd
00000310: 34a9 a7bb 160a 55bd a5bd fa3d 745c 1d3e
00000320: 0eaf edbe 92e0 43be 352a e73e b380 4c3e
00000330: 4eef d8bc 7ef6 98be 4274 9ebe c9e3 e8be
00000340: 8ce4 26be d1e3 363e e324 ac3e 9863 6c3e
00000350: dd6f d7be 68b5 95be 30d8 90bd 0bb9 fe3e
00000360: 1821 943d d097 04be 7cd2 533e e802 43be
00000370: 9d74 a7be 385c bc3e 67af 66be a2da e5bd
00000380: aff5 fbbe 64aa a83e 4544 c23e d48f 353e
00000390: f816 b0be 7531 fbbe f892 d4be 35d2 bc3e
000003a0: 6cd0 753e f715 d63e edaa 8a3e 4c95 013e
000003b0: 8071 a0bb d093 c4be 6d8c e4be 0273 efbe
000003c0: 2645 573e 417c 7fbe be50 dabd a6e7 95be
000003d0: 5617 e4bd 6f76 a9be 20d7 b2be 3e83 1d3e
000003e0: 3460 18be f544 a33e 09d3 44be bd3c ccbe
000003f0: 1410 bbbd 5bd6 66be 6238 0bbe f525 00bf
0.39379373 0.42063662 -0.15044466 0.43155053 -0.10955179 0.100895345 -0.24342752 0.29364133
0.44006252 -0.37259 0.43937987 0.09822967 0.36940444 0.06771529 0.24109405 -0.0705955
0.39125624 0.08308808 -0.2112267 0.15303017 -0.23036832 -0.058636427 -0.20307916 0.33168548
-0.37311476 -0.21424152 -0.16273645 -0.32985774 0.061463892 -0.49046192 0.46698993 -0.43268308
0.38467854 0.08363089 -0.13462669 0.33730817 0.083517775 0.39617652 0.07055138 -0.14457104
0.13205363 -0.15439078 0.19943875 0.44897813 0.2967877 -0.22328061 0.27261218 0.07564187
0.25764835 -0.2914747 -0.5045687 -0.19173044 -0.38178155 0.41924825 0.15388465 0.20461498
0.16023043 -0.01970075 0.41448164 -0.35203227 0.043070752 -0.3734911 0.14534113 -0.13793825
0.16147624 -0.11019253 0.44634163 -0.2667785 -0.29349083 -0.32769343 0.47909772 0.17374346
0.49516898 -0.3974044 -0.5223354 -0.39429206 -0.31831375 0.20483616 0.18496433 0.4520537
-0.25520107 -0.36672366 0.29990113 -0.19345944 0.30014125 -0.13721327 0.31403622 -0.3604842
-0.25298417 0.14619975 0.120691046 -0.13960922 0.2602639 0.36178666 -0.3971195 -0.24717909
0.45256758 -0.16871625 -0.1772582 -0.4783516 -0.3013096 0.12723534 -0.07722742 -0.39155036
0.011728346 -0.336935 -0.41952643 -0.27533132 -0.4338998 -0.34300593 0.52914345 0.121833585
0.15407985 -0.4494863 -0.33035824 -0.16642791 0.06684321 -0.42979926 -0.23084447 -0.34408054
-0.0026921732 -0.16726929 -0.019953117 -0.36091417 -0.3578748 -0.273748 -0.20131667 -0.41073477
0.42293 -0.08223883 0.46889335 0.14170413 -0.41385275 0.37447765 -0.1296681 -0.2112584
-0.42215616 -0.5238185 0.14173567 -0.096337646 0.17594603 -0.3934381 0.34290034 -0.402491
-0.066622265 0.08879834 0.28837147 0.43979976 0.4779142 -0.39635855 0.12218643 -0.225003
-0.063989006 -0.3659345 0.48240882 -0.36116436 0.27118564 0.19337846 0.13608393 -0.29483008
0.4556524 0.109671995 0.060584582 -0.47469562 0.22199623 -0.08956967 -0.20815434 0.44965738
0.11490608 -0.28688288 -0.24953984 -0.027338007 0.28026128 -0.13067296 -0.28834584 -0.17234674
-0.3694904 0.18636577 0.3988414 -0.48663053 0.12713236 0.28143993 0.06931227 -0.19629245
0.27875358 0.2634645 0.18857677 -0.102283895 -0.1273834 0.038444303 -0.067102715 -0.14100853
0.31583717 0.43548703 -0.02975047 -0.09553469 -0.005116606 -0.05201157 0.12243203 0.153673
-0.4642262 -0.19128636 0.4514939 0.1997097 -0.026481297 -0.2987556 -0.30948073 -0.45486286
-0.16298121 0.17860343 0.33621892 0.23084867 -0.42077532 -0.29239964 -0.070724845 0.49750552
0.07232875 -0.12948537 0.20685762 -0.19044077 -0.32706156 0.36789107 -0.22527848 -0.112233415
-0.4921088 0.32942498 0.3794271 0.17730647 -0.34392524 -0.4906117 -0.41518378 0.36879125
0.24005288 0.41813633 0.2708353 0.12654608 -0.0048963428 -0.38394022 -0.44638386 -0.46767431
0.21022472 -0.24949743 -0.106599316 -0.29278296 -0.111372635 -0.3309817 -0.34929752 0.15382096
-0.14880449 0.31888548 -0.19221129 -0.3989009 -0.09133926 -0.22542708 -0.13595727 -0.5005792

conv1.bias f4 [128]
00000000: 68bb 273e 964b c3be 96d5 a1be 7cd5 d4be
00000010: eb9e dc3e a66a f2be e4d3 be3e e030 41bc
00000020: 7204 4fbd 2e71 a33e 247a d5bc 6b3d a13e
00000030: d345 b93e c7b7 d9be 7144 3f3e 7399 c43d
00000040: f481 d23d f233 be3d 815b 2b3e 4719 5dbe
00000050: 27a0 32bd 514a f03e 3269 ac3e 29d2 123b
00000060: cf83 f3be 05bd 303d a7f3 afbe 4944 cf3e
00000070: e761 a1be 1c91 4dbc 1d08 cbbd 4580 b03d
00000080: 5974 f03e 0595 7f3d 35e4 923e 0f8a c03e
00000090: f5ef cb3e f387 19be 9ad8 cebd b835 783e
000000a0: aff8 d5bd 2771 6b3e 4458 d8bd 2108 acbe
000000b0: 13e6 4b3e c6bf a83d 4c82 673e 8c75 ff3e
000000c0: 7088 af3e f1db f03e 8eb7 7a3d e38f dbbe
000000d0: 2da8 abbe 7992 9fbe 7e99 e1be 4085 7abe
000000e0: bb54 edbe 7296 eabe 8a45 97be 2a0f f6be
000000f0: 910c 9abe 7ce8 3e3e 2e9d d23e 9f9b 04be
00000100: ca3a cdbd 7709 853e 7215 60be d980 5cbe
00000110: ed84 a13e 53e5 ddbe 0db3 893d e562 df3e
00000120: eb7c b23d 5412 0b3e d840 90be d051 653c
00000130: 179f e33c 6cca 093e 0c70 4c3e ea9f dd3e
00000140: 69a8 c2be 6530 403d b899 65be 1b5b c5be
00000150: e73b 033b c23b d6be 4d60 b33e 877c 413d
00000160: 0154 80be 8fe9 843e 01cf ebbe 2b7c 33be
00000170: b405 96bd 1328 d8be 360c 9ebe 3dc6 34bd
00000180: bb2c c13e dd16 f73e 77c0 9c3e c791 99be
00000190: 402c 9dbe 14b3 df3e d9ae 383e 05aa 343b
000001a0: a253 b33d 0d7f c7be d3f8 1dbe c3e8 f43e
000001b0: 7723 b7bd 9149 1abc 71e3 d3be 81c4 89be
000001c0: fc03 8abb 7b6d 95be e9a4 16bd 2572 4f3e
000001d0: 7388 f9be 8976 213e 83b2 a6be af7d 6dbe
000001e0: b5be 463e 9d86 cc3e 117e 0abe 1c36 52be
000001f0: 69b0 e9be d571 85be 9d21 dfbe 0bd3 d4bd
0.16380084 -0.38143605 -0.31608266 -0.41569126 0.43089995 -0.4734699 0.37271035 -0.011791438
-0.05054135 0.31922287 -0.026059218 0.3149217 0.36186084 -0.42523023 0.18678452 0.095995806
0.10278693 0.092872515 0.16734125 -0.21591674 -0.043609764 0.469317 0.33674008 0.0022403097
-0.475615 0.043149013 -0.3436558 0.40481785 -0.31520006 -0.012546804 -0.09913657 0.086182155
0.46963766 0.062397975 0.28689733 0.3760533 0.3983151 -0.14993267 -0.10099907 0.24239242
-0.10447823 0.22992383 -0.1056371 -0.33599952 0.19911985 0.08239703 0.22608298 0.4989437
0.3428378 0.47042802 0.061210208 -0.42883214 -0.33526745 -0.31166437 -0.44062418 -0.24464893
-0.46353707 -0.45817906 -0.29545242 -0.48058444 -0.30087712 0.18643373 0.41135544 -0.1294999
-0.10020979 0.25983784 -0.2188318 -0.21533526 0.31546727 -0.43339023 0.06723604 0.43630138
0.087152325 0.1358121 -0.28174472 0.013996556 0.02778582 0.13456124 0.19964617 0.43286067
-0.38019112 0.046921153 -0.2242192 -0.3854607 0.0020024718 -0.41842467 0.3503441 0.0472379
-0.2506409 0.2595944 -0.4605637 -0.17527835 -0.073253065 -0.42218074 -0.3086869 -0.044134367
0.3772944 0.4825963 0.3061559 -0.29994032 -0.30697823 0.43691313 0.18035449 0.002756716
0.08756186 -0.3896412 -0.1542695 0.47833833 -0.08942311 -0.009416954 -0.41384462 -0.26907733
-0.0042119008 -0.2918509 -0.036778364 0.20258386 -0.48736915 0.15767874 -0.3255807 -0.23192476
0.19408686 0.39946452 -0.13524653 -0.20528454 -0.45642403 -0.2606341 -0.43580332 -0.10391816

conv2.weight f4 [32, 128, 2]
00000000: efbe 0b3d 4cb7 4fbd 5e84 5f3d b09c 203d
00000010: c294 57bd 8f9e d6bc d0fd a63c 0064 52bc
00000020: e800 3fbb 6061 f6bc cc9f 4d3d 821a 0fbd
00000030: 5ce3 173d 43e3 fbb9 f2b9 f13c d744 983d
00000040: f86a 793c c107 b8bc 9cfa 33bc 2197 2e3d
00000050: 0f4e 91bc 3e55 123d 4714 32bd 3cf4 483d
00000060: 3969 3e3c 06a0 babb ae44 1e3d d8cb a73b
00000070: cdf0 373d e137 2fbd 1831 133b 6566 423d
00000080: 8212 a53d 1448 443d 111d a9bc 51cb 9f3d
00000090: 692c ebbc 2458 c4bc f5bf 30bd 8dd1 a13a
000000a0: 5ce7 443d 4686 c73c de59 f1bc 10de cc3c
000000b0: 2112 c6bc 0502 643d bfce a1bd b284 5fbd
000000c0: d42f 77bd 1ca4 c9bc 634d a6bb b1ab 313d
000000d0: f1b1 cabb 60ad 5b3d 8c07 c73c e9ef 593d
000000e0: 360b 163d f6c6 463d e1b4 34bd bdad 6b3d
000000f0: 5d23 923c 320b 35bd 86ec 4cbd a6ef 7ebd
00000100: eff7 0b3d e842 16bd 31e9 f8b9 286b b93a
00000110: d63a 5bbd a2cd e53c 92e7 9c3b cb62 2b3d
00000120: 2698 593d 9eba 41bd e8f8 8d3d b9a5 883d
00000130: eb47 243d d9d6 07bd 446b aabc b475 cabc
00000140: d13b b6bc 7932 893c 5ec1 103d a4df 6b3d
00000150: 07c8 11bd d420 9c3c ad21 3a3c f939 74bd
00000160: aaf3 88bd 7271 12bd d819 1c3d 4434 98bd
00000170: cc29 33bd b883 0d3d f463 db3c 149c 413d
00000180: bb0e 3dbd eaef 63bd e166 283d f74a 803d
00000190: 96b3 643d 8436 113d 1f3e 563b 66ea 483d
000001a0: 476b 8ebc 173e 94bc 518b 073d b0fd 52bd
000001b0: 6029 0dbd b2e0 3a3d c712 103b ef82 363c
000001c0: 9be1 f9bb 0822 ab3b 973f 283d 10f1 35bd
000001d0: 6cb0 893c 8be5 043d 37de 79bd 474a 513d
000001e0: b176 25bd 2e17 9abc 1030 b6bc f721 20bd
000001f0: 3556 9fbd 0c0a a03c 31aa 47bb bae7 93bd
00000200: f6aa 02bc b07b b73d 5680 283d 6328 323d
00000210: ede7 05bd 4b9a 07bd 5909 fcbc c73b bfbc
00000220: f347 e9bc a47f 143c d296 76bc fe6c a6bc
00000230: fe44 0dbb b0d4 cfbc dbbc 8a3c 2cdb e03c
00000240: 8251 29bd e3e7 98bd 71aa e03c 1e1a b13c
00000250: ba1f 49bd 0053 503d 0caf 3dbd 3f20 ec3c
00000260: e957 773c a070 7ebd 5399 7c3d 9f5f 17bd
00000270: 217e bebc 2963 213b 965b 01bd 99ae 753d
00000280: 5cfa a1bc 908b 973c 5860 98bd c01f d73c
00000290: 9c81 94bc 0933 30bd a6d1 57bc 0dd2 883c
000002a0: 5a58 b93c 020f 98bd fabc 6dbd f2e3 a6bb
000002b0: e23d bb3c 4695 113d 44fa 433d 6f9e aa3b
000002c0: 5f5c fa3c e70b 293d 0865 89bb bb30 4f3d
000002d0: d79e 333c 2927 323d 1130 5cbd 5cf7 49bd
000002e0: 8c0b 3c39 9ffb d93c cb4b dd3c 3527 29bd
000002f0: 8530 3d3d 3151 84bc 288f 8c3d 0918 b53c
00000300: b800 93bd a3f2 5ebd 0ac3 49bd 5171 df3c
00000310: c214 24bd 1791 45bc dc2d d5bb d931 36bd
00000320: 3d95 dd3c 0060 76bd 8904 6cbd cc52 7ebd
00000330: f6de 27bd c577 17bd 5e3e fe3c 6c04 4cbb
00000340: 27a9 913b 7cee 1c3d 7e9f b93a 9170 1bbd
00000350: 9543 85bd 007d 013c 419e e1bc 4a49 103d
00000360: f979 343d cea6 d93c 93fc 463d 2e33 8c3d
00000370: 9376 f13b df0d 51bd b30b 7c3d 1091 eabc
00000380: 63ff 12bd 9ebd 4c3d d9b7 113d a18c 893c
00000390: 29d3 75bc 2c5f 9ebd ed1e 63bc 64cc 4d3d
000003a0: f16a 60bb f75b fabb e4b3 c43b 0cd9 5cbc
000003b0: 0625 753d a721 7f3c 3492 e33c 3be5 69bc
000003c0: 890a cf3c bd6f c23c 577b 6c3c 9af0 4e3d
000003d0: 4c44 553d 1b2a 6e3d 80ce 443d acea 82bc
000003e0: 1abc 58bd 8034 3b3c a3e0 643c 309f 2ebc
000003f0: 4079 2bbc 80a5 403b 6cf6 cc3c 25a3 703b
0.034117635 -0.050711915 0.054569595 0.03921193 -0.0526321 -0.026198654 0.0203847 -0.012841225
-0.0029144827 -0.030075729 0.050201222 -0.03493739 0.03708206 -0.00048043774 0.029507611 0.07435005
0.015223257 -0.022464635 -0.010985043 0.042624597 -0.017737417 0.035725825 -0.04347637 0.049061045
0.011621767 -0.005695346 0.038639717 0.0051207356 0.04490738 -0.0427779 0.0022459682 0.047460932
0.08060171 0.0479203 -0.020643743 0.078024514 -0.0287077 -0.02396781 -0.043151814 0.0012345776
0.048072204 0.024356019 -0.029461797 0.025008231 -0.024178566 0.05566599 -0.07900762 -0.054569907
-0.060348347 -0.024614386 -0.005075143 0.04337663 -0.006185763 0.05363214 0.02429559 0.05320731
0.036631785 0.048529588 -0.044117812 0.057538737 0.017839128 -0.04420013 -0.050030254 -0.062240265
0.034171995 -0.0366849 -0.00047475987 0.0014146315 -0.053522907 0.028052155 0.0047883475 0.041842263
0.053123616 -0.047297113 0.06932241 0.06672234 0.04010765 -0.03316388 -0.020803101 -0.024714328
-0.02224532 0.0167477 0.03534066 0.057586327 -0.03559115 0.019058622 0.011360568 -0.0596256
-0.066871 -0.03575272 0.038110584 -0.07431844 -0.043741032 0.034549445 0.02678106 0.04726799
-0.046156626 -0.05564872 0.041113738 0.062642984 0.05583533 0.03545238 0.0032690836 0.049051665
-0.017385138 -0.018096013 0.033091847 -0.051511467 -0.034463286 0.045624442 0.0021983848 0.011139615
-0.007625771 0.0052225627 0.04107627 -0.04441935 0.016807757 0.03244547 -0.061002936 0.051096227
-0.040396396 -0.018809881 -0.022239715 -0.03909489 -0.077801146 0.01953604 -0.0030466432 -0.07221933
-0.007975331 0.089591384 0.041138016 0.043495547 -0.032691885 -0.03310613 -0.030766176 -0.023343934
-0.02847669 0.009063635 -0.015050607 -0.020315643 -0.0021556015 -0.025369972 0.016935756 0.02744826
-0.041337498 -0.07466104 0.027425023 0.021618899 -0.049102522 0.050860405 -0.046309516 0.02882397
0.015096643 -0.062119126 0.06166966 -0.036956426 -0.023253502 0.0024625754 -0.031581484 0.059980962
-0.019772701 0.018499166 -0.07440251 0.026260257 -0.018128209 -0.04301742 -0.013172543 0.016701723
0.022625137 -0.074247375 -0.05804155 -0.005093091 0.022856656 0.03554275 0.047846094 0.005206875
0.030561624 0.041271117 -0.004192952 0.050583582 0.010963163 0.043494377 -0.053756777 -0.049308166
0.00017933379 0.02660924 0.02701368 -0.041297156 0.04618885 -0.016151996 0.068632424 0.022106187
-0.071778715 -0.054430615 -0.04925827 0.027275713 -0.04005886 -0.012058518 -0.006505711 -0.044481132
0.027048701 -0.060150146 -0.057621513 -0.06209068 -0.040984116 -0.036979456 0.031035598 -0.0031130565
0.0044452134 0.038313374 0.0014161912 -0.03794915 -0.06507031 0.0079033375 -0.027541282 0.035226144
0.044061635 0.026568796 0.048580717 0.06845699 0.0073688715 -0.05103862 0.061534595 -0.028633624
-0.035888087 0.04998552 0.03557572 0.01679069 -0.015003958 -0.07732996 -0.013862354 0.05024375
-0.003424343 -0.0076403576 0.00600289 -0.013479482 0.05984976 0.015571988 0.027779676 -0.014275844
0.025273578 0.023734922 0.014433703 0.050522424 0.052067086 0.058145624 0.048048496 -0.01598104
-0.052913763 0.011426091 0.013969573 -0.01065807 -0.01046592 0.002939552 0.025019847 0.0036718335

conv2.bias f4 [32]
00000000: c89b 89bc 4288 2dbd 21ae 2dbd ed81 80bc
00000010: f664 343d 0c0b 873c 4cf3 aabc 1016 5ebd
00000020: a8be 30bd 783f 583c 97f9 553d 32d7 033d
00000030: b179 07bc 7b01 ea3c 06f1 be3b b8b8 0c3c
00000040: ac7a b33c 4423 92bc 7cb4 893c d8a8 6eba
00000050: c701 933c f02f 49bc f802 2c3d d4e4 6ebd
00000060: d131 2a3d aa95 50bd c67b 36bd 5e69 1dbd
00000070: d89e 08bc 4040 44bc 9b97 7dbd eceb 1a3d
-0.016797915 -0.042366274 -0.04240239 -0.015686953 0.044041596 0.01648476 -0.020867966 -0.05422026
-0.043150574 0.013198726 0.05223998 0.032187648 -0.00826876 0.028565159 0.005827072 0.008588962
0.02190908 -0.017839082 0.016809694 -0.0009104139 0.017945183 -0.012279496 0.04199502 -0.058323696
0.041551415 -0.05092398 -0.044551633 -0.038430564 -0.008338653 -0.011978209 -0.06191216 0.03782265

conv3.weight f4 [32, 128, 2]
00000000: 88eb 7b3c 5c21 7a3d 84b1 36bd 6adb 4dbd
00000010: 700f 763c 9837 453d e2e8 2a3d b8b1 cf3c
00000020: c037 2c3c d836 ff3c d8c4 cbbc dc56 7fbd
00000030: bc1f 55bd 34b8 23bd a0a9 643c 3234 653d
00000040: da35 253d e617 27bd d4c5 8e3c 5874 623d
00000050: c06a c93a 48c9 3ebc 30ae 0abd 00d4 94bb
00000060: 64a4 403d 5891 90bc 50a4 1abc 546b f83c
00000070: a845 c4bc 2489 ecbc a8ef 2c3c 245a 393d
00000080: 1075 da3b a0f6 24bb 945c 4bbd b6dd 183d
00000090: 60eb 3a3b 1461 e1bc 8c3a 61bd 80eb f2bc
000000a0: dce8 33bd d8b0 513c f496 3b3d 686a 4abc
000000b0: f8d1 1b3d 189c 59bc 40ad f3bc b847 6abd
000000c0: ce8c 2bbd c42c 403d c26c 2c3d fc00 773d
000000d0: e0a1 cebb 9c12 ad3c 105b fbbb 4a62 7d3d
000000e0: 6821 4cbd 0c06 8bbc 5475 75bd b03f ca3b
000000f0: 964d 47bd d68a 33bd 78d0 6c3c 36b4 7e3d
00000100: de5f 553d 44e3 2f3d 2872 7dbc 0055 f7ba
00000110: a623 66bd 8e16 2c3d ace3 8b3c 6c4b 593d
00000120: 14e0 78bd 58b9 79bc 58df 24bd cee9 43bd
00000130: 3232 18bd 50c1 a13c 302f 2a3d a037 e73c
00000140: 005f afbc 14da e13c 2c25 7c3d 404e 483b
00000150: 043f b8bc 5425 4abd 54f7 343d b004 6abc
00000160: d4d8 48bd be0a 143d e824 4c3c d0a6 cebc
00000170: 2cfc 7bbd 8874 003c a8a2 97bc 9091 31bc
00000180: 80cc aabc 288f 523d 70e2 073d ccf4 4a3d
00000190: 584e c13c 681d 923c 58a6 7c3d 00aa 68b9
000001a0: a22b 133d 5c31 d03c 1c01 75bd 5cea 2d3d
000001b0: 90d5 c8bb 9cdc 2cbd 5285 2c3d f456 4fbd
000001c0: c410 f03c a294 52bd b4da 92bc 4c2d 70bd
000001d0: 0a15 373d d02a 7d3c 10e5 503d d043 9c3c
000001e0: 50de fdbc c0f9 193c 3c3e 2d3d d8eb 45bd
000001f0: 4ec7 2abd 643b 82bc 22ef 1fbd a006 3abc
00000200: 986c 723d 6059 0e3d 548d 4fbd da22 0abd
00000210: c870 4d3d b010 9dbb 3096 d7bc d832 483c
00000220: 8093 22bc 6c80 ac3c 00ea 963a 828f 113d
00000230: 30ec 0c3d e4c0 b33c c497 9e3c 607b 83bc
00000240: f6ee 6cbd 602b c5bb 106e 42bd 08c8 4cbd
00000250: b66b 61bd d8e3 7fbc a850 3dbd 5022 2d3c
00000260: 341a dd3c 8216 183d b216 77bd 0466 573d
00000270: d857 983c e8be 4f3d 8815 f83c 0027 3a3c
00000280: 488b 44bc 242c 563d de9e 26bd 7eaf 473d
00000290: e049 5f3d 983b 273c 1092 dbbc 52cd 4ebd
000002a0: 8022 61bb 4488 593d a057 3d3b 00e0 80bc
000002b0: 74a0 febc 8009 993b 5893 0d3d 807d 473c
000002c0: d88f 303c 0627 31bd a8c7 f73c 10de d43b
000002d0: 509d 7bbd 1eef 543d c2cd 223d 006e 003a
000002e0: 7043 4abc 2cef 653d a425 7e3d c0e0 263c
000002f0: 1ea4 6d3d d472 d83c c857 f43c 0097 72bb
00000300: 0098 95bb 52b8 233d b841 e0bc 40dc 36bd
00000310: 42d7 1f3d 88c5 75bc d6bd 343d c824 2abc
00000320: 94f4 1bbd c09b 8aba f01d ecbb c00a 6b3c
00000330: 0881 45bd a8bf 58bd a0d0 533b 2810 673d
00000340: 0ed3 21bd 76c7 00bd f075 c33b d0b6 3f3d
00000350: 5e30 443d b0d0 55bc 40bb 56bb c48d 49bd
00000360: d207 7a3d 1288 1b3d 74e8 823c 10b0 78bd
00000370: e6b5 103d de3d 10bd 6077 2a3b 5ca9 f53c
00000380: a021 23bb 10ba f9bc 90ea 2c3d bc83 2d3d
00000390: e080 c73b fafb 1fbd 849e 04bd b2f6 65bd
000003a0: f003 09bd 28ab 64bd 80b7 b4bb cece 35bd
000003b0: 06cb 113d 6026 4fbd e27d 30bd e4be 1dbd
000003c0: 7886 86bc e05d c83c 663e 383d 88e8 7d3d
000003d0: 5038 74bc 2068 703c 3031 903b 9c30 0d3d
000003e0: 449a f03c dc84 163d 029e 2e3d b81c 553d
000003f0: 8041 513b 0636 333d aed8 0fbd a00c 57bc
0.015375979 0.06106697 -0.044602886 -0.050258078 0.015018329 0.04814872 0.041726 0.025353298
0.010511339 0.031154081 -0.024874136 -0.062338695 -0.052032217 -0.03997059 0.013956457 0.05595798
0.04033456 -0.040794276 0.017428316 0.055286735 0.0015366897 -0.011644669 -0.033857524 -0.004541874
0.047031775 -0.01764743 -0.009438589 0.030324616 -0.023958996 -0.028873987 0.010555185 0.04525198
0.006666787 -0.0025171414 -0.049648836 0.037320815 0.0028521642 -0.02751211 -0.054987475 -0.02965331
-0.043923244 0.0127985105 0.045798257 -0.012354471 0.03804204 -0.013281845 -0.029745698 -0.057197303
-0.04188233 0.04691769 0.042095907 0.060303673 -0.006305918 0.021127038 -0.0076707676 0.061861314
-0.049836546 -0.016970657 -0.059926346 0.006172143 -0.048657976 -0.043833576 0.014454 0.06218358
0.05209338 0.042941347 -0.0154691115 -0.0018869936 -0.05618634 0.042013697 0.017076336 0.053050444
-0.060760573 -0.015241943 -0.04025206 -0.047830395 -0.037157245 0.019745499 0.041548908 0.028224766
-0.021407604 0.027569808 0.061558887 0.0030564219 -0.022490986 -0.049352005 0.044181183 -0.014283344
-0.04903491 0.036143057 0.012459971 -0.025226027 -0.061519787 0.007840283 -0.018510178 -0.010837927
-0.020849466 0.051406056 0.033174932 0.049549863 0.023596928 0.017836288 0.061682075 -0.00022188574
0.035930283 0.025414161 -0.05981551 0.04245983 -0.0061289743 -0.042202577 0.04211933 -0.050620034
0.02930487 -0.05141128 -0.017926551 -0.05863695 0.0446978 0.015452102 0.0509997 0.019075304
-0.030989796 0.009397924 0.04229568 -0.04832062 -0.041693978 -0.01589746 -0.039046414 -0.011354119
0.059185594 0.034753203 -0.05067189 -0.033724643 0.050156385 -0.004793249 -0.026316732 0.012219153
-0.009922862 0.02105733 0.0011513829 0.03553725 0.034404933 0.021942563 0.019359477 -0.01605004
-0.05784508 -0.0060171336 -0.047468245 -0.049995452 -0.05503436 -0.015618287 -0.046219498 0.010567263
0.026990034 0.03713084 -0.06032438 0.052587524 0.018596575 0.05071917 0.030283704 0.011361837
-0.011996098 0.05228819 -0.04067885 0.048751347 0.054513812 0.010207079 -0.026803046 -0.050488777
-0.003435284 0.05310847 0.002889134 -0.015731812 -0.03108237 0.004670322 0.034564346 0.012175918
0.0107764825 -0.043250106 0.03024657 0.0064961985 -0.06142932 0.051985852 0.039747007 0.0004899204
-0.01234518 0.056136295 0.062047616 0.0101854205 0.058017842 0.026421942 0.029827014 -0.0037016273
-0.004565239 0.039970703 -0.027375087 -0.04464364 0.039023645 -0.015000708 0.044126354 -0.010384746
-0.038075045 -0.0010574982 -0.0072057173 0.014345825 -0.048218757 -0.052917153 0.0032320395 0.056411892
-0.039507918 -0.03144022 0.005964987 0.046805203 0.04789769 -0.013050243 -0.0032765418 -0.049207464
0.061042614 0.037971564 0.015979983 -0.06071478 0.035329722 -0.03521525 0.0026011094 0.029987983
-0.0024891868 -0.03048423 0.042215884 0.04236196 0.006088361 -0.039058663 -0.032377735 -0.05614347
-0.03345102 -0.05582729 -0.005515039 -0.044386677 0.03559401 -0.050573707 -0.0430888 -0.038512126
-0.016421542 0.024458826 0.044981383 0.061989337 -0.014906004 0.014673263 0.004400395 0.034470186
0.029370435 0.0367478 0.042631157 0.05202934 0.003192991 0.043752693 -0.03511875 -0.013125569

conv3.bias f4 [32]
00000000: c400 51bd d86e 14bd 382f 4d3c 3068 713d
00000010: cc3f 313d c875 d0bc a0f7 6d3c 442f 303d
00000020: 805d 553c ac5b 51bd 801a fb3b 9084 d03c
00000030: c0a5 273c 52d4 693d 5ca3 553d 4a0b 0fbd
00000040: 78a2 423d e61c 65bd 7a55 11bd d098 cf3c
00000050: c094 f83a 4214 5d3d 9650 183d 0025 5abc
00000060: 2ecf 743d dab8 37bd 20d6 3e3c 9467 a33c
00000070: 3a1e 483d ae78 7a3d a8ab f93c 642c e4bc
-0.05102612 -0.03623852 0.012523465 0.05893725 0.043273732 -0.025446787 0.01452437 0.043013826
0.01302278 -0.051112816 0.007663071 0.025453836 0.010232389 0.05708725 0.052157745 -0.034922875
0.047518224 -0.055935763 -0.035481907 0.025341421 0.0018965229 0.053974397 0.037186228 -0.013314486
0.059767894 -0.044854023 0.011647731 0.01994685 0.04885695 0.061150245 0.03047736 -0.027853198

lin1.weight f4 [2, 320]
00000000: 4e8d 8f3d d82d 943d 9fea 053d d428 373d
00000010: cdf4 8fbc 2a5d 33bd 177e d3bc 32ba 11bd
00000020: e154 d8bc 2c61 1f3d 3848 c3b9 9950 1dbd
00000030: fbc8 27bd 7a7a 963c d853 b2bc 9e33 b33a
00000040: f434 4a3d 1aec 283d 776c fe3c a3db f33c
00000050: 9a38 433c 50e7 80bd 3d33 873c 86b4 5abd
00000060: ed63 b4bb a65d a63c f9a1 c33d ec22 8e3d
00000070: f703 0c3d 00ba 0abc 14a5 a9bd 4a53 afbd
00000080: 95a1 83bc b2ce 57bc ecf5 683d 1ae3 e13b
00000090: e965 c23d 824c 24bb cdb5 de3c dff8 74bc
000000a0: db61 ba3b f103 9a3d 2767 5b3d b0e5 d4bc
000000b0: 0285 7abd 0094 14bc b9ff 7bbd e79a 27bd
000000c0: 0f90 263c d6c0 803d 5ef0 9cbc 3bf7 6c3d
000000d0: f354 173d dd3e 203d 9e4c cabb a2b8 063d
000000e0: 16a8 70bc 0e97 b43c f911 6a3c 01ce f83c
000000f0: 5fb8 f8bb 20d1 143d 7a26 303d 6439 4b3c
00000100: 4c14 67bb d3a0 15bd a85c ecbc 96e3 033d
00000110: 595b 0cbd e034 e1bc 9e91 e93c ffbc e8bc
00000120: 211c 31bd 048c 4b3c 1aa5 c53c 398f 4fbd
00000130: 1d30 ea3b a893 30bd cf35 c13c 8885 fa3c
00000140: 6d4c 2b3d f59a 973d c5eb 833c dc23 9cbc
00000150: 2680 adbc a8ce debc 4a61 88bd a190 93bd
00000160: 8ba3 c0bc 195c 5a3d 6383 c13c 1acc cabc
00000170: c7a9 413d 772e 2abd fe97 d4bb 79ac 5f3c
00000180: 4fee 24bd 9d65 503d 5e14 e1bc 3d97 073d
00000190: 3541 063b 3f8d 00bd b80c 573d 63c8 c3bb
000001a0: d959 263c 8832 583d 0c9e 56bd da10 393d
000001b0: bbf8 dfbc 8fd5 38bd 8fb5 fe3c 5c1e 8cbc
000001c0: bcbf 36bd f484 e0bc d402 143d abac c83c
000001d0: cfe1 33bb 162e eb3c ddee 353c 0c71 2bbd
000001e0: 9ceb 2f3c 0f0b 233d 0da9 abbb bf51 d1bb
000001f0: f6d8 603d d9ed 82bc 7f6f 553d 2f2f 493d
00000200: 34fd 393d f351 733c 4313 ec3c 232e 553c
00000210: e171 5fbd fa12 16bd b30e 50bd c9df 01bd
00000220: 3f3d 44bd 88cf 10bd 5194 2cbd 5f7e d3bc
00000230: 8441 2c3d 7e0e 913d 5bf6 8c3b 20e9 1bbd
00000240: 47ba 4dbd ca11 7abd 44dc babd 7fce 753b
00000250: be1f f13c 5289 903d 16a9 ecbc 2367 17bd
00000260: 057b 5b3d d685 0abd ff61 40bd 0abb 3ebd
00000270: 1063 8b3c 2b75 f4bb c5b3 0bbd a1f9 423d
00000280: 5c92 42bd df6c 4abc 9a49 983c 97cd 273d
00000290: 7823 9b3d 0b0d fe3c dfa5 7c3d eb4c ad3c
000002a0: 8514 ebbb a36d 8abd 22f8 7d3d cf7d 353d
000002b0: 6e84 0d3d 058a b5ba 9f37 46bb e26f b3bd
000002c0: 7d34 163c b737 963c 8ced dc3c e3db dc3c
000002d0: 831a 53bd 58cd 6bbc ad9f 35bd 89d4 e1bc
000002e0: ffd6 303d c9e9 ecbb 58cd 603d b9c0 e1bc
000002f0: 92fb cdbc 2605 34bd 37bd b93c afc9 273d
00000300: 751a 503d 4c5e 883d 678a 3c3d da52 3ebd
00000310: 9071 f0bb 6fe5 0a3d 3b72 e23c 5f6a b03c
00000320: 27e6 66bd 73dd 9abd 80e0 8c3c f584 c7bc
00000330: 9cb5 4f3d a475 013d 6c0b ef3c 806f 703d
00000340: 95c5 5f3d ed29 5bbd 9a04 4b3d 69ce 5b3d
00000350: 3bb0 bc3c 97c9 2f3b 43ff 69bc 7814 d53b
00000360: 55a1 81bd 1b8e b6ba 1613 cdba 833a 663d
00000370: 138e 8cbd 398f 233d a2ca 8e3d e8b9 423d
00000380: 27ec 2b3d 2486 533d ec6d 7fbc 0e3a 34bd
00000390: ba77 953c 6db8 8cbd 7cf4 1d3c b913 ecbc
000003a0: fe1f 74bd 4dc1 37bd f27c f0bc bb59 8abd
000003b0: f06b 7abd 9ebc 57bd 2004 aa3a 025b 373c
000003c0: 17e0 0b3c 510e 9abd 9c43 8cbd 997b c1bc
000003d0: dd39 963d 826c b03d c672 173d 7539 c93c
000003e0: c776 a93c 185b 03bd 99d8 e0bc ab67 78bd
000003f0: 09cc 10bd 29f6 ccbb 1219 403d d9c2 013c
0.070093736 0.072353065 0.032694455 0.04471667 -0.017572785 -0.04379002 -0.02581696 -0.03557796
-0.02640766 0.03891103 -0.00037247106 -0.038406942 -0.040963154 0.018368948 -0.021768495 0.0013671999
0.049366906 0.04124079 0.03105758 0.029767817 0.01191535 -0.06294119 0.016503925 -0.053394817
-0.005505076 0.020308327 0.09552378 0.069402546 0.03418347 -0.008467197 -0.08283439 -0.08560808
-0.01606826 -0.013171839 0.056875154 0.0068935277 0.09492094 -0.0025070016 0.027186299 -0.014951914
0.005687935 0.07520283 0.05356517 -0.02598843 -0.061162002 -0.009068489 -0.061523173 -0.04091921
0.010166182 0.062867805 -0.019157585 0.057852965 0.03694625 0.03912245 -0.0061736843 0.032890923
-0.014688512 0.022044685 0.014286512 0.030371668 -0.007590338 0.03633225 0.043005444 0.01240382
-0.00352599 -0.036530327 -0.028852776 0.032199465 -0.034266803 -0.027491033 0.028511818 -0.028410433
-0.043239716 0.012423519 0.024126578 -0.050673697 0.007146849 -0.043109566 0.023585228 0.03058125
0.041820932 0.074026026 0.016103635 -0.019060068 -0.02117927 -0.02719815 -0.066591814 -0.0720532
-0.023515483 0.053310487 0.02362222 -0.024755526 0.047281053 -0.04154822 -0.0064878454 0.0136519605
-0.04026633 0.050878156 -0.027475532 0.033103216 0.0020485644 -0.031384703 0.052502364 -0.0059748157
0.010153257 0.052782565 -0.05239682 0.045182087 -0.027340284 -0.04512554 0.031092433 -0.01710432
-0.044616446 -0.027407147 0.03613551 0.024496397 -0.0027447825 0.028708499 0.011104313 -0.041855857
0.010737326 0.03980547 -0.0052386583 -0.0063879187 0.05489441 -0.015982555 0.052108284 0.049117263
0.04540749 0.014851081 0.028817778 0.013011488 -0.054551963 -0.03663919 -0.05079527 -0.03170756
-0.04790997 -0.035354167 -0.042133633 -0.025817094 0.042054668 0.07082842 0.004301829 -0.038064122
-0.050226476 -0.06105212 -0.091240436 0.0037507114 0.029434081 0.07057442 -0.02888922 -0.036963593
0.053584117 -0.033819042 -0.046968456 -0.046565093 0.01701501 -0.0074602566 -0.03410699 0.047601346
-0.04750286 -0.012355058 0.018589783 0.04096755 0.075751245 0.031012079 0.061681625 0.021154841
-0.007174077 -0.06759193 0.062004216 0.044309434 0.034550123 -0.0013850337 -0.0030245555 -0.08761574
0.009167788 0.018337114 0.02696874 0.026960319 -0.051538955 -0.0143922195 -0.04434173 -0.027567165
0.043173786 -0.007230018 0.05488333 -0.027557718 -0.025144372 -0.043950222 0.022673232 0.040963825
0.05080648 0.06658611 0.04603043 -0.046465732 -0.0073377565 0.03391021 0.02764236 0.021535097
-0.056371834 -0.07561769 0.017196894 -0.024355391 0.050710306 0.03160633 0.029180251 0.058700085
0.05463179 -0.05350678 0.049564935 0.053663645 0.023033252 0.0026823038 -0.014282051 0.006502684
-0.063296 -0.0013927849 -0.0015645947 0.056208145 -0.06863036 0.03993151 0.06972243 0.047540575
0.04197326 0.0516416 -0.015590172 -0.044000678 0.018245567 -0.06871114 0.009640809 -0.028817998
-0.059600823 -0.04486208 -0.029356454 -0.06755396 -0.061138093 -0.052670114 0.00129712 0.011191132
0.008537314 -0.07522262 -0.06848833 -0.023618506 0.07335255 0.08614446 0.03697469 0.02456353
0.02068652 -0.032069296 -0.027447032 -0.06064574 -0.035350833 -0.0062549305 0.04689891 0.00791999

lin1.bias f4 [2]
00000000: 0e29 ebbc 7de4 b0bc
-0.0287061 -0.021593327
