src/deep_ant/Models/model_synthetic-ecg.pt (torch, 73799 bytes, 8 tensors)

conv1.weight f4 [128, 2, 2]
00000000: f9dd c33e 88bc d43e 8e95 eebd 5189 eb3e
00000010: 912f e3bd 795c cf3d 08d9 7abe dbfe 953e
00000020: 3e5a e13e cb92 bbbe e30f de3e fe4b be3d
00000030: fc01 bd3e 210d 8b3d 4d89 763e 707e 91bd
00000040: 03ce c43e 1abb 983d e43f 70be 045c 013e
00000050: a063 6bbe 03a9 6bbd 0ff7 51be 0038 aa3e
00000060: 9e1a cabe 940f 6cbe 9b4e 10be 363a 99be
00000070: 5e79 423d f734 fcbe 1d64 e63e e13c dabe
00000080: 4970 c53e e165 a93d 2501 27be d4c3 9e3e
00000090: 12d8 9c3d 0577 cf3e 00a4 5b3d b6f3 21be
000000a0: b9af 093e a750 0abe c8c8 563e 88ad e33e
000000b0: a7e2 933e 1c11 5fbe afc5 933e d8d1 b53d
000000c0: 76ad 813e 985f 9bbe d87c fdbe c835 47be
000000d0: e926 c4be dd3e d23e 24a1 143e fcc1 533e
000000e0: d807 223e 4871 19bc ffba c73e fe79 b6be
000000f0: c5a3 013d 56f4 aebe d8ca 1e3e 5fbb 2fbe
00000100: 3570 1c3e af22 d4bd 3fb5 d33e 51f7 96be
00000110: feac 98be df69 98be b451 e63e c309 2a3e
00000120: d533 f63e ab10 d3be d35a febe 0af8 c7be
00000130: 11de abbe 803e 4f3e be68 373e 9c70 d53e
00000140: e286 83be 4557 aebe 3177 873e 6c89 4dbe
00000150: 2d03 9b3e 4f9f efbd 0028 923e bd64 c6be
00000160: d3dd 81be 1d02 1d3e 0cf2 da3d 95d9 01be
00000170: 00b6 983e 88c7 ad3e 5182 b9be 3900 89be
00000180: 35bc e93e b7b3 2bbe 516a 35be 3cff f6be
00000190: 0451 92be ec4a 003e e1ce 89bd fd3d babe
000001a0: 3186 3c3c 5a37 afbe 4afe d9be d607 8dbe
000001b0: 9481 dfbe fed9 a2be 63d9 ff3e ade4 c13d
000001c0: 5c09 1d3e a33f eebe 2382 a8be dfc5 2abe
000001d0: 85a0 9d3d 69f2 e0be 793c 5dbe 6efe 98be
000001e0: 62ac abb9 f9d0 3ebe fbf3 0bbd d1cc adbe
000001f0: df07 afbe 90a8 95be c312 30be a533 c9be
00000200: d1ab d63e fa13 cabd d2f9 dc3e be0b 203e
00000210: 8f5e d8be 2025 b13e 72f9 0bbe f7b1 44be
00000220: 3be4 d3be 2ec1 fdbe 62e4 113e 55e3 e1bd
00000230: e3c2 463e 65ef d1be 4b3d bd3e 1e1b bbbe
00000240: 2f3b b0bd e006 d43d fdb1 843e 985f ce3e
00000250: f28e e93e de2a cbbe 9925 003e d107 5dbe
00000260: 15db 5fbd 2c75 bfbe d94e e83e d24d bcbe
00000270: b259 893e 4170 333e 2ec7 263e fc44 8bbe
00000280: d530 e93e 1fcb de3d 1cf5 853d 3634 e2be
00000290: 3c31 563e bb9e 98bd 84bc 6bbe 703a db3e
000002a0: c0ad e53d 5f14 8dbe c097 81be e40e c4bc
000002b0: 93d7 8e3e 4d44 02be c0e3 92be fdfe 2ebe
000002c0: 35ac bfbe 380f 373e cdf7 c63e e730 f0be
000002d0: 8dbc eb3d e569 843e 5cc6 bc3d 402b 35be
000002e0: 38b0 853e bee2 863e 2217 403e fb93 b5bd
000002f0: be61 07be ffb0 5c3d b91e b2bd 3166 17be
00000300: bd4f a33e ebd9 db3e 9cd1 46bd dbc1 e4bd
00000310: 5f1e ed3b 4fe5 efbc 90b0 f43d 0c04 0f3e
00000320: 6c08 e8be 357b 3dbe ab0a d73e 49ad 463e
00000330: f0b1 c1bc 528f 9abe c5c6 9cbe 283b e6be
00000340: eece 26be 89a6 2d3e 6d16 a43e 5a38 6d3e
00000350: 0eba e2be 86a6 99be 9f05 a0bd 73b0 f73e
00000360: 6eb4 923d 4347 04be 632d 553e 04ac 41be
00000370: 2502 a5be 01bc ba3e 02ef 6abe 93f5 cdbd
00000380: bb50 febe 96fb aa3e bab7 c13e fcdc 393e
00000390: a52c b2be 523b fcbe f4ab cfbe 14ab be3e
000003a0: f6dc 763e b1c6 d73e 5c8c 863e 2789 023e
000003b0: ba8b 7ebb 8d61 c2be f1b2 dbbe cf2b f0be
000003c0: 6c78 513e 3b6e 7bbe de53 cfbd c556 94be
000003d0: 8c3d bcbd 8f08 b4be 671f a7be 4439 2a3e
000003e0: 8ae7 17be 688b 9d3e b1b3 24be 9e2e bcbe
000003f0: a056 b3bd 1893 77be 8fe9 1cbe 3d3b f3be
0.3825529 0.41550088 -0.11649619 0.46003202 -0.11093057 0.1012506 -0.24496853 0.29296002
0.44014162 -0.36635432 0.43371496 0.09291838 0.36915576 0.067896135 0.24075814 -0.07104194
0.38438424 0.07457562 -0.23461872 0.12632757 -0.22987223 -0.05753423 -0.20504402 0.3324585
-0.39473432 -0.23052818 -0.14092486 -0.29927224 0.047479026 -0.4925916 0.44998255 -0.42624572
0.3856223 0.08271385 -0.1630903 0.3100878 0.076584 0.40520492 0.0536232 -0.15815625
0.13445939 -0.13507329 0.2097503 0.4446833 0.2888386 -0.2178387 0.28861758 0.08877915
0.25327653 -0.3034637 -0.4950931 -0.1945411 -0.38310936 0.41063586 0.14514595 0.20679468
0.15823305 -0.009365387 0.39009854 -0.35639948 0.031650323 -0.3417079 0.15507066 -0.1716132
0.15277179 -0.10358178 0.41349217 -0.29485562 -0.29819483 -0.29768273 0.4498421 0.16605286
0.4808642 -0.41223654 -0.49678668 -0.39056426 -0.3356786 0.20238686 0.1791105 0.41687477
-0.25688845 -0.34050956 0.26458123 -0.20071954 0.3027586 -0.117003076 0.28546143 -0.38748732
-0.2536455 0.15332837 0.10690698 -0.12680657 0.29826355 0.33941293 -0.36232236 -0.26757982
0.45651403 -0.16767775 -0.17716338 -0.48241603 -0.28577435 0.1252858 -0.06728912 -0.36375418
0.011506603 -0.34221917 -0.4257682 -0.2754504 -0.43653548 -0.3180694 0.4997054 0.094674446
0.15335602 -0.46532926 -0.32911786 -0.16677044 0.07696632 -0.43934944 -0.216051 -0.29881614
-0.00032744097 -0.18634404 -0.034168225 -0.33945325 -0.34185693 -0.29230165 -0.17194657 -0.39297214
0.4192796 -0.098670915 0.43159348 0.1562948 -0.42259642 0.34598637 -0.13669375 -0.19208513
-0.41385064 -0.49561447 0.14247277 -0.11029688 0.19410281 -0.41002956 0.36960825 -0.36544126
-0.086050384 0.10352874 0.25917044 0.40307307 0.4561687 -0.39681143 0.12514342 -0.21585013
-0.054652292 -0.37394083 0.45372656 -0.36778122 0.26826245 0.1752329 0.16286919 -0.27201068
0.45545068 0.10878586 0.065408915 -0.4418046 0.20917219 -0.074521504 -0.23021132 0.42818022
0.11214781 -0.27554604 -0.2531109 -0.023932882 0.27898845 -0.12721367 -0.28689384 -0.17089458
-0.3743607 0.17876899 0.38860932 -0.4691231 0.115105726 0.2586204 0.092175215 -0.1769228
0.26111007 0.26344866 0.18758824 -0.08866116 -0.1322088 0.053879734 -0.08697266 -0.14785077
0.31896773 0.42939696 -0.048539743 -0.111697875 0.0072362865 -0.029284148 0.11947739 0.13966388
-0.45318925 -0.18504031 0.42000327 0.1940204 -0.023644418 -0.3018747 -0.306204 -0.44967008
-0.16289875 0.1695806 0.3204836 0.23166028 -0.44282573 -0.3000986 -0.07813572 0.48376808
0.071633205 -0.12917809 0.20818095 -0.18913275 -0.322282 0.3647156 -0.22942737 -0.10056605
-0.49670967 0.3339507 0.37835485 0.18150705 -0.34799686 -0.49264008 -0.40560877 0.37239897
0.24107727 0.42143777 0.2627896 0.12747632 -0.0038840608 -0.3796505 -0.4290996 -0.46908423
0.20456094 -0.24553768 -0.10123418 -0.2897245 -0.09191427 -0.3516278 -0.32641146 0.16623408
-0.14834419 0.3077042 -0.16084172 -0.36754316 -0.08756757 -0.24177206 -0.1532347 -0.47506133

conv1.bias f4 [128]
00000000: 9805 213e 5cde c2be d361 a2be 0b0d d5be
00000010: 74f6 dd3e 2abc f1be 0618 c03e b6c7 96bc
00000020: c45d 6ebd 00cd a03e 9f1e 3ebd 6c8d 9f3e
00000030: 9e08 b83e 2220 debe 3143 443e 9b11 c43d
00000040: 5b7b d83d 7fb9 993d c945 0d3e 3434 76be
00000050: 41e2 85bd 9bb2 f23e ac24 ad3e 0a94 a7bc
00000060: 3a73 f1be 4280 b13c 0c9a adbe 04ef cf3e
00000070: fedf 9bbe 5062 19bd b50f e4bd 6aad b23d
00000080: dba7 f03e 527d 483d 7e2d 943e 471c c63e
00000090: 26e3 cd3e 4ac8 2fbe 24bb e7bd 521d 783e
000000a0: 8340 0abe 2888 6e3e 398e debd 8496 adbe
000000b0: 9cbb 503e 5a53 9d3d 3364 623e dbaf fe3e
000000c0: 10fd ad3e b30d f23e 492c d53c 6a5e dbbe
000000d0: 3030 b3be 6f8c 9ebe 71e0 e1be dd56 80be
000000e0: ec09 ecbe e9bf ecbe 856b 98be e36b fcbe
000000f0: 8d1c 9dbe cec5 413e 320c d63e 9d9c 19be
00000100: 2e7c 14be 6735 883e 9166 7cbe 70f2 73be
00000110: a82b 9e3e 9935 debe 88c1 823d 8d4a e23e
00000120: 3c59 b13d 9708 093e 5c54 95be 26b0 a5bb
00000130: 95a8 d33c c908 f93d 0513 493e 7d57 de3e
00000140: a0ab c3be f7f5 873c 9512 80be a72b cabe
00000150: a5c8 1fbd a76c e0be f6ba b13e a090 693d
00000160: 7dcd 89be fde6 843e e4e4 f1be e990 46be
00000170: 1730 c8bd 7797 d9be 6b3b a2be 9f13 aabd
00000180: 4c4d c13e ad93 f63e 99f2 a23e e549 99be
00000190: 716c a7be 2e50 de3e 6ee8 363e 5903 793c
000001a0: ad90 883d cf92 cebe c85d 2abe f88b f73e
000001b0: 9d73 ffbd 184a cabc 19b8 d4be 83ce 8fbe
000001c0: f664 41bc 0264 9fbe a22d 82bd 595d 523e
000001d0: 389d fabe e9a2 173e 06fd a8be 2e86 78be
000001e0: 8183 463e 3776 cc3e 3f03 0dbe 3716 52be
000001f0: 5eba e7be 9cbc 83be 96d3 dfbe 24d5 e9bd
0.1572479 -0.38060272 -0.3171526 -0.41611513 0.4335209 -0.4721387 0.37518328 -0.018405776
-0.05819489 0.31406403 -0.04641592 0.31162584 0.35944074 -0.4338389 0.19166256 0.095736705
0.10570403 0.07506084 0.13796152 -0.24043351 -0.06537295 0.4740189 0.3381704 -0.020456333
-0.47158223 0.021667603 -0.3390659 0.40612042 -0.3044433 -0.037447274 -0.111358084 0.08724482
0.47003064 0.04894764 0.28940958 0.3869345 0.40212363 -0.17166248 -0.11314991 0.24229935
-0.13501172 0.23294127 -0.108669706 -0.33903897 0.20384067 0.07681914 0.22108535 0.49743542
0.33982134 0.47276077 0.026022093 -0.4284547 -0.34997702 -0.30966517 -0.44116548 -0.2506627
-0.4610132 -0.46240166 -0.2976953 -0.4930106 -0.30685845 0.18923113 0.4180618 -0.1500115
-0.14500496 0.26603243 -0.24648501 -0.23822951 0.30892682 -0.43400267 0.063845694 0.44197503
0.08659598 0.13382183 -0.29165924 -0.005056399 0.025837222 0.12159879 0.19636162 0.43426123
-0.38216877 0.016596777 -0.25014177 -0.3948643 -0.03900971 -0.43832895 0.34712952 0.05702269
-0.26914588 0.2595748 -0.47244942 -0.19391216 -0.097747974 -0.4249837 -0.31685957 -0.08304524
0.37754285 0.48159543 0.31825712 -0.2993919 -0.32699922 0.43420547 0.17862102 0.015198552
0.0666822 -0.4034638 -0.16637337 0.48348975 -0.12473223 -0.024693534 -0.41546705 -0.28087243
-0.011803856 -0.31130987 -0.0635636 0.20543422 -0.48948073 0.14808239 -0.33005542 -0.24269935
0.19386102 0.3993394 -0.1377077 -0.20516287 -0.45259374 -0.25729835 -0.43716115 -0.114176065

conv2.weight f4 [32, 128, 2]
00000000: f3e8 443c 8407 72bd 6b94 5b3d 2274 1d3d
00000010: ce2b 7ebd 40cf f9bc eea7 9e3c 17bd 5fbc
00000020: ca8c debb ec44 e6bc fb28 493d ecb7 12bd
00000030: f875 533d 92dd 873b 42d1 3e3c 7501 453d
00000040: 26b3 36bc d984 14bd 4d99 20bc 8ce0 503d
00000050: e6b0 40bd 7c5c 603c bb43 7dbd 6f2f 053d
00000060: bb78 bd3c 7c81 383b 5794 d03c 40ba fdb9
00000070: 6346 0b3d f2ba 4cbd cc3a 20bc a2f1 df3c
00000080: d5e4 7b3d 7aa1 ff3c 7a06 3dbd 9c25 433d
00000090: c22e 6bbc 0b1b 5dbc 16dd 6cbd f65d 2bbc
000000a0: 7835 313d 0cfd 053c 61e2 16bd 381d 9b3c
000000b0: fcfd a6bc f38b 693d cff8 5dbd 47f4 a0bc
000000c0: f51a 77bd b6f4 c8bc 5831 9a3c 3b4e 753d
000000d0: ebda 193c 70a1 783d c5fe 3e3c bbad 123d
000000e0: c4ac 4a3d f3b7 543d 797c 11bd c91e 6a3d
000000f0: d649 173d df38 f4bc fbde f9bc 3fa9 57bd
00000100: 768e 7a3c 878e 50bd 0092 d03c ab9a 9f3c
00000110: 46b2 5fbd 0456 8b3c 8e22 b9bb d0b1 e63c
00000120: 1e28 113d 978b 7fbd 0a1a 673d b147 543d
00000130: 7b94 c33c d2d3 6cbd 6313 b9bc 3b28 96bc
00000140: e8da 86bc 0488 0f3d aa04 b63c ec5f 493d
00000150: 32f7 c2bc 7f98 aa3c 4181 b53c b0f3 54bd
00000160: b73d 7bbd 6766 06bd 6034 2d3d aa8a 72bd
00000170: 055b 60bd ba25 0e3d 0611 0c3d 71ab 543d
00000180: f863 3cbd 9ef8 36bd fc77 033d 3326 5f3d
00000190: accd 153d 3a02 193c 6c44 a03c dd11 703d
000001a0: 7ad1 28bd 3cd2 ecbc d26a 2f3d 14c4 31bd
000001b0: ea6e 11bd b371 373d 8c20 953c f8f8 9d3c
000001c0: 1b0f e2bc bd25 b9ba 2721 673d 8bc3 1bbd
000001d0: 127f fcb9 bd20 ed3c 33c5 35bd 0001 753d
000001e0: 86b1 04bd e6ca 80bc ae5b 8dbc f68f 27bd
000001f0: 39a0 7abd 3d91 113d 448d 803c a773 72bd
00000200: 6867 27bd 2d3d 7b3d b2ad be3c d9dd c93c
00000210: 9d2c 19bd 404a e2bc c0fc 2dbc b2b8 47bc
00000220: dd6f 31bd 9fa0 9a3b 0884 a33b 7d02 0dbc
00000230: 1a74 083c 8e3e cbbc 660e 823c f5f4 be3c
00000240: 0a12 08bd 090a 7ebd 796c 033d 0481 703c
00000250: ecbf 08bd b7f6 723d 7a9f eebc daba 2a3d
00000260: d417 fa3c ede6 58bd 5774 223d 9118 6dbd
00000270: bcbe 10bd 8a10 31bc 54fc 2bbd 45fe 7a3d
00000280: ebbc 5dbc 58f3 c63c bf9f 67bd 0628 123d
00000290: 7473 a7bc 0a07 45bd c089 003c dc41 f23c
000002a0: 516b 5b3d b74e 1ebd d580 fbbc bf83 463c
000002b0: 11ec 853c 3f3f c23c 8403 093d f8c1 6fbc
000002c0: 052c 0e3d 70f3 3c3d e3e1 89bc 0fb4 343d
000002d0: e466 f53c 1f50 613d 002d 14bd c628 00bd
000002e0: c65f 9bbc b7f1 2e3b 0879 143d 1fe9 16bd
000002f0: a6f9 f83c 4740 bdbc 35f1 173d ccbc 61bb
00000300: c2fd 5ebd 426f 0bbd c421 37bd bd2b 013d
00000310: 1053 2cbd 8b80 aebb 06b6 463c 2ed0 0ebd
00000320: 744b 863c dcb3 7bbd 580a 37bd 9640 67bd
00000330: 5f17 9fbc ccec babc 8c23 053c 553c 48bc
00000340: 67b9 e83c cf24 683d 22e5 b03c 79af cebc
00000350: 4865 6fbd 2c5d ba3c af14 00bd 41eb 013d
00000360: 70b8 263d 7738 be3c 5591 6a3d 5970 703d
00000370: baf2 483c caa6 3dbd 8884 613d 28e6 f7bc
00000380: 753d f7bc d7c4 543d dffd 403d 39f3 963c
00000390: a37e 3d3b ddaf 59bd a025 e1bb 94a6 743d
000003a0: b940 783c 7ab2 a03b d4d6 5fbc b33c b7bc
000003b0: b9b6 143d cb88 4c3b 3af3 233d a91d 3abc
000003c0: 3f11 de3c 9d0b d33c a995 1c3c c349 203d
000003d0: ba7d 1c3d 3245 6a3d 7f6f 443d acea 82bc
000003e0: eb60 58bd 4b6b 3b3c fed6 a6ba 44bc 89bc
000003f0: cbe4 2abc 133e 463b 6027 383d 70fa 9b3c
0.01201843 -0.0590892 0.05360834 0.03844083 -0.062053494 -0.030494332 0.019367184 -0.013655922
-0.0067916857 -0.028109036 0.049111348 -0.035819933 0.051626176 0.0041462863 0.011646571 0.048097093
-0.011151111 -0.036259506 -0.009802175 0.050995395 -0.047043703 0.013693925 -0.06183217 0.03251594
0.023128858 0.002815335 0.025461359 -0.00048394687 0.034002673 -0.049982972 -0.009779643 0.0273369
0.061497528 0.031204928 -0.046148755 0.04764329 -0.01435441 -0.013495217 -0.05782803 -0.010459414
0.043263882 0.008178007 -0.036836985 0.018934831 -0.020384781 0.05701823 -0.05419236 -0.01964773
-0.060328443 -0.02453075 0.018822357 0.05988906 0.009390573 0.060700834 0.0116574215 0.035810214
0.04948117 0.05193324 -0.035519097 0.057158265 0.03693565 -0.029812275 -0.030501833 -0.05265164
0.015292754 -0.050917175 0.025460243 0.019482931 -0.054613374 0.017008789 -0.005649871 0.02816096
0.03543865 -0.062388983 0.056421317 0.051826183 0.023874512 -0.057819195 -0.022592252 -0.01832973
-0.016461805 0.035041824 0.02221902 0.049163744 -0.023799513 0.020824669 0.02215636 -0.05199021
-0.061338153 -0.032812502 0.042286277 -0.05921427 -0.054774303 0.034703948 0.034195922 0.05192131
-0.045993775 -0.044670694 0.032096848 0.05447979 0.036573097 0.00933891 0.019563876 0.058610786
-0.041215397 -0.028908841 0.04282648 -0.043399885 -0.035506167 0.044786166 0.018203996 0.019283757
-0.027595093 -0.0014125627 0.0564281 -0.03802828 -0.0004815986 0.028946275 -0.044377517 0.059815407
-0.032395862 -0.01572175 -0.01725563 -0.040908776 -0.061187956 0.0355389 0.01569236 -0.059192326
-0.0408701 0.06133764 0.023276184 0.024641918 -0.037396062 -0.027623296 -0.010619342 -0.012190031
-0.04331957 0.0047188546 0.0049901046 -0.00860655 0.008328462 -0.024810102 0.015876006 0.023310164
-0.03322033 -0.06202129 0.03208587 0.014679197 -0.033386156 0.059317317 -0.029128779 0.0416821
0.03052894 -0.052954603 0.03966173 -0.057884756 -0.03533815 -0.010807166 -0.041988686 0.061277647
-0.013533811 0.024285957 -0.05654883 0.0356827 -0.020440795 -0.048102416 0.007845342 0.02957242
0.05356914 -0.038649287 -0.03070108 0.012116372 0.016347917 0.023711799 0.03345062 -0.014633648
0.03470995 0.046130598 -0.016831344 0.04411703 0.029956289 0.05500805 -0.036175728 -0.031288885
-0.018966567 0.0026694366 0.036248237 -0.036843415 0.03039248 -0.023101939 0.037095267 -0.0034444807
-0.05444122 -0.03404165 -0.044709936 0.031535853 -0.042071402 -0.005325382 0.012128359 -0.034866504
0.0163934 -0.061450824 -0.0446876 -0.05645808 -0.019420324 -0.022817992 0.008126151 -0.0122214155
0.02840872 0.05667573 0.021593634 -0.025230156 -0.0584462 0.022749506 -0.031269725 0.031718496
0.040703237 0.023220284 0.057267506 0.058700893 0.012264902 -0.04630164 0.055058032 -0.030261114
-0.030180672 0.051945534 0.04711711 0.018426524 0.0028914593 -0.053146232 -0.0068709403 0.059729174
0.01515215 0.0049040886 -0.013662059 -0.02236781 0.03630707 0.0031209465 0.04002688 -0.011359611
0.027107833 0.025762374 0.009557166 0.039132845 0.03820584 0.057194896 0.047957893 -0.01598104
-0.052826803 0.011439155 -0.0012728868 -0.016813405 -0.010430525 0.0030249401 0.044959426 0.019040316

conv2.bias f4 [32]
00000000: 89a3 91bc 496f 2fbd 9c0c 39bd 7ed4 75bc
00000010: a540 333d a707 b53c 4cf3 aabc 95d5 5dbd
00000020: 2e2f 23bd 222b 533c 79e8 543d 6603 013d
00000030: e0e1 cbbb 860a 003d 5fb2 6c3b d1cb 1c3c
00000040: d722 f13c 7a72 88bc ba76 993c 0939 9f3b
00000050: 95b1 933c fba5 2dbc fd90 1e3d fc76 68bd
00000060: b9fb 263d ad95 4bbd e822 24bd 345b 1fbd
00000070: 7d87 f9bb 70b4 e3bb 1d99 70bd 349d 0a3d
-0.017778175 -0.04283074 -0.04517804 -0.015004275 0.04376282 0.022098375 -0.020867966 -0.054158766
-0.039839916 0.012888702 0.051979516 0.03149738 -0.0062219948 0.031260036 0.003611706 0.009570078
0.029435558 -0.01665615 0.018733371 0.004859094 0.018029014 -0.010598655 0.03871249 -0.056754097
0.040767405 -0.04970329 -0.04007235 -0.038905337 -0.0076150284 -0.006949 -0.05873977 0.033841327

conv3.weight f4 [32, 128, 2]
00000000: 88eb 7b3c 5c21 7a3d 84b1 36bd 6adb 4dbd
00000010: 700f 763c 9837 453d e2e8 2a3d b8b1 cf3c
00000020: c037 2c3c d836 ff3c d8c4 cbbc dc56 7fbd
00000030: bc1f 55bd 34b8 23bd a0a9 643c 3234 653d
00000040: da35 253d e617 27bd d4c5 8e3c 5874 623d
00000050: c06a c93a 48c9 3ebc 30ae 0abd 00d4 94bb
00000060: 64a4 403d 5891 90bc 50a4 1abc 546b f83c
00000070: a845 c4bc 2489 ecbc a8ef 2c3c 245a 393d
00000080: 1075 da3b a0f6 24bb 945c 4bbd b6dd 183d
00000090: 60eb 3a3b 1461 e1bc 8c3a 61bd 80eb f2bc
000000a0: dce8 33bd d8b0 513c f496 3b3d 686a 4abc
000000b0: f8d1 1b3d 189c 59bc 40ad f3bc b847 6abd
000000c0: ce8c 2bbd c42c 403d c26c 2c3d fc00 773d
000000d0: e0a1 cebb 9c12 ad3c 105b fbbb 4a62 7d3d
000000e0: 6821 4cbd 0c06 8bbc 5475 75bd b03f ca3b
000000f0: 964d 47bd d68a 33bd 78d0 6c3c 36b4 7e3d
00000100: de5f 553d 44e3 2f3d 2872 7dbc 0055 f7ba
00000110: a623 66bd 8e16 2c3d ace3 8b3c 6c4b 593d
00000120: 14e0 78bd 58b9 79bc 58df 24bd cee9 43bd
00000130: 3232 18bd 50c1 a13c 302f 2a3d a037 e73c
00000140: 005f afbc 14da e13c 2c25 7c3d 404e 483b
00000150: 043f b8bc 5425 4abd 54f7 343d b004 6abc
00000160: d4d8 48bd be0a 143d e824 4c3c d0a6 cebc
00000170: 2cfc 7bbd 8874 003c a8a2 97bc 9091 31bc
00000180: 80cc aabc 288f 523d 70e2 073d ccf4 4a3d
00000190: 584e c13c 681d 923c 58a6 7c3d 00aa 68b9
000001a0: a22b 133d 5c31 d03c 1c01 75bd 5cea 2d3d
000001b0: 90d5 c8bb 9cdc 2cbd 5285 2c3d f456 4fbd
000001c0: c410 f03c a294 52bd b4da 92bc 4c2d 70bd
000001d0: 0a15 373d d02a 7d3c 10e5 503d d043 9c3c
000001e0: 50de fdbc c0f9 193c 3c3e 2d3d d8eb 45bd
000001f0: 4ec7 2abd 643b 82bc 22ef 1fbd a006 3abc
00000200: 986c 723d 6059 0e3d 548d 4fbd da22 0abd
00000210: c870 4d3d b010 9dbb 3096 d7bc d832 483c
00000220: 8093 22bc 6c80 ac3c 00ea 963a 828f 113d
00000230: 30ec 0c3d e4c0 b33c c497 9e3c 607b 83bc
00000240: f6ee 6cbd 602b c5bb 106e 42bd 08c8 4cbd
00000250: b66b 61bd d8e3 7fbc a850 3dbd 5022 2d3c
00000260: 341a dd3c 8216 183d b216 77bd 0466 573d
00000270: d857 983c e8be 4f3d 8815 f83c 0027 3a3c
00000280: 488b 44bc 242c 563d de9e 26bd 7eaf 473d
00000290: e049 5f3d 983b 273c 1092 dbbc 52cd 4ebd
000002a0: 8022 61bb 4488 593d a057 3d3b 00e0 80bc
000002b0: 74a0 febc 8009 993b 5893 0d3d 807d 473c
000002c0: d88f 303c 0627 31bd a8c7 f73c 10de d43b
000002d0: 509d 7bbd 1eef 543d c2cd 223d 006e 003a
000002e0: 7043 4abc 2cef 653d a425 7e3d c0e0 263c
000002f0: 1ea4 6d3d d472 d83c c857 f43c 0097 72bb
00000300: 0098 95bb 52b8 233d b841 e0bc 40dc 36bd
00000310: 42d7 1f3d 88c5 75bc d6bd 343d c824 2abc
00000320: 94f4 1bbd c09b 8aba f01d ecbb c00a 6b3c
00000330: 0881 45bd a8bf 58bd a0d0 533b 2810 673d
00000340: 0ed3 21bd 76c7 00bd f075 c33b d0b6 3f3d
00000350: 5e30 443d b0d0 55bc 40bb 56bb c48d 49bd
00000360: d207 7a3d 1288 1b3d 74e8 823c 10b0 78bd
00000370: e6b5 103d de3d 10bd 6077 2a3b 5ca9 f53c
00000380: a021 23bb 10ba f9bc 90ea 2c3d bc83 2d3d
00000390: e080 c73b fafb 1fbd 849e 04bd b2f6 65bd
000003a0: f003 09bd 28ab 64bd 80b7 b4bb cece 35bd
000003b0: 06cb 113d 6026 4fbd e27d 30bd e4be 1dbd
000003c0: 7886 86bc e05d c83c 663e 383d 88e8 7d3d
000003d0: 5038 74bc 2068 703c 3031 903b 9c30 0d3d
000003e0: 449a f03c dc84 163d 029e 2e3d b81c 553d
000003f0: 8041 513b 0636 333d aed8 0fbd a00c 57bc
0.015375979 0.06106697 -0.044602886 -0.050258078 0.015018329 0.04814872 0.041726 0.025353298
0.010511339 0.031154081 -0.024874136 -0.062338695 -0.052032217 -0.03997059 0.013956457 0.05595798
0.04033456 -0.040794276 0.017428316 0.055286735 0.0015366897 -0.011644669 -0.033857524 -0.004541874
0.047031775 -0.01764743 -0.009438589 0.030324616 -0.023958996 -0.028873987 0.010555185 0.04525198
0.006666787 -0.0025171414 -0.049648836 0.037320815 0.0028521642 -0.02751211 -0.054987475 -0.02965331
-0.043923244 0.0127985105 0.045798257 -0.012354471 0.03804204 -0.013281845 -0.029745698 -0.057197303
-0.04188233 0.04691769 0.042095907 0.060303673 -0.006305918 0.021127038 -0.0076707676 0.061861314
-0.049836546 -0.016970657 -0.059926346 0.006172143 -0.048657976 -0.043833576 0.014454 0.06218358
0.05209338 0.042941347 -0.0154691115 -0.0018869936 -0.05618634 0.042013697 0.017076336 0.053050444
-0.060760573 -0.015241943 -0.04025206 -0.047830395 -0.037157245 0.019745499 0.041548908 0.028224766
-0.021407604 0.027569808 0.061558887 0.0030564219 -0.022490986 -0.049352005 0.044181183 -0.014283344
-0.04903491 0.036143057 0.012459971 -0.025226027 -0.061519787 0.007840283 -0.018510178 -0.010837927
-0.020849466 0.051406056 0.033174932 0.049549863 0.023596928 0.017836288 0.061682075 -0.00022188574
0.035930283 0.025414161 -0.05981551 0.04245983 -0.0061289743 -0.042202577 0.04211933 -0.050620034
0.02930487 -0.05141128 -0.017926551 -0.05863695 0.0446978 0.015452102 0.0509997 0.019075304
-0.030989796 0.009397924 0.04229568 -0.04832062 -0.041693978 -0.01589746 -0.039046414 -0.011354119
0.059185594 0.034753203 -0.05067189 -0.033724643 0.050156385 -0.004793249 -0.026316732 0.012219153
-0.009922862 0.02105733 0.0011513829 0.03553725 0.034404933 0.021942563 0.019359477 -0.01605004
-0.05784508 -0.0060171336 -0.047468245 -0.049995452 -0.05503436 -0.015618287 -0.046219498 0.010567263
0.026990034 0.03713084 -0.06032438 0.052587524 0.018596575 0.05071917 0.030283704 0.011361837
-0.011996098 0.05228819 -0.04067885 0.048751347 0.054513812 0.010207079 -0.026803046 -0.050488777
-0.003435284 0.05310847 0.002889134 -0.015731812 -0.03108237 0.004670322 0.034564346 0.012175918
0.0107764825 -0.043250106 0.03024657 0.0064961985 -0.06142932 0.051985852 0.039747007 0.0004899204
-0.01234518 0.056136295 0.062047616 0.0101854205 0.058017842 0.026421942 0.029827014 -0.0037016273
-0.004565239 0.039970703 -0.027375087 -0.04464364 0.039023645 -0.015000708 0.044126354 -0.010384746
-0.038075045 -0.0010574982 -0.0072057173 0.014345825 -0.048218757 -0.052917153 0.0032320395 0.056411892
-0.039507918 -0.03144022 0.005964987 0.046805203 0.04789769 -0.013050243 -0.0032765418 -0.049207464
0.061042614 0.037971564 0.015979983 -0.06071478 0.035329722 -0.03521525 0.0026011094 0.029987983
-0.0024891868 -0.03048423 0.042215884 0.04236196 0.006088361 -0.039058663 -0.032377735 -0.05614347
-0.03345102 -0.05582729 -0.005515039 -0.044386677 0.03559401 -0.050573707 -0.0430888 -0.038512126
-0.016421542 0.024458826 0.044981383 0.061989337 -0.014906004 0.014673263 0.004400395 0.034470186
0.029370435 0.0367478 0.042631157 0.05202934 0.003192991 0.043752693 -0.03511875 -0.013125569

conv3.bias f4 [32]
00000000: c400 51bd d86e 14bd 382f 4d3c 3068 713d
00000010: cc3f 313d c875 d0bc a0f7 6d3c 442f 303d
00000020: 805d 553c ac5b 51bd 801a fb3b 9084 d03c
00000030: c0a5 273c 52d4 693d 5ca3 553d 4a0b 0fbd
00000040: 78a2 423d e61c 65bd 7a55 11bd d098 cf3c
00000050: c094 f83a 4214 5d3d 9650 183d 0025 5abc
00000060: 2ecf 743d dab8 37bd 20d6 3e3c 9467 a33c
00000070: 3a1e 483d ae78 7a3d a8ab f93c 642c e4bc
-0.05102612 -0.03623852 0.012523465 0.05893725 0.043273732 -0.025446787 0.01452437 0.043013826
0.01302278 -0.051112816 0.007663071 0.025453836 0.010232389 0.05708725 0.052157745 -0.034922875
0.047518224 -0.055935763 -0.035481907 0.025341421 0.0018965229 0.053974397 0.037186228 -0.013314486
0.059767894 -0.044854023 0.011647731 0.01994685 0.04885695 0.061150245 0.03047736 -0.027853198

lin1.weight f4 [2, 320]
00000000: e85b 333d f197 183d 2d17 edba c7ce 243d
00000010: 48be 233c 620f 5dbb 6cc8 8b3c 2d73 ae37
00000020: 2cd0 6dbc 1b18 193c 4e2b 25ba a2a6 1bbd
00000030: 4ae5 25bd 59dc 973c 36d5 b6bc 1669 5c3a
00000040: 2a6d 483d 4c30 2a3d 76b3 013d e55a f83c
00000050: 4ccd 183d efb2 1abd b29d 523d 9ffb 2abd
00000060: 297e 15bd 3a63 b5bc 1c4d 613d 717f 003d
00000070: b92b 8c3c 6f73 053d f113 5dbd f99b 58bd
00000080: bcbc 9c3c bdbe 57bc 712b e93c 1af4 20bd
00000090: d137 533d 4b3c 4dbd 5669 e83c a168 013d
000000a0: 5460 f3bc 3ba3 4f3d 3c94 fb3c f18f cebc
000000b0: 26a1 d8bc 185d 293d 6160 72bc 1a3a 573b
000000c0: 07b9 da3c 6673 d93c d8e8 dbbc 8bb1 2e3d
000000d0: a233 8d3c 667e 933c e7cd d4bc fe64 d03c
000000e0: 6712 bfbb 023e 293d e459 ee3c 2c78 263d
000000f0: 5fb8 f8bb 20d1 143d 7a26 303d 6439 4b3c
00000100: 4c14 67bb d3a0 15bd a85c ecbc 96e3 033d
00000110: 595b 0cbd e034 e1bc 5b10 f23c 7d38 f2bc
00000120: ddf3 35bd 3e7b 3e3c 4581 c13c a28e 4bbd
00000130: d0ab 0e3c 5663 32bd e236 c73c fcba 013d
00000140: ede4 973c 6fcd 5e3d 66bf 33bc 0759 b7bc
00000150: f68d 733c 6896 863c f4c2 cabc a980 17bd
00000160: 65d9 82bc 4e98 c83c 6246 ca3c a0f0 c4bc
00000170: 19d1 423d d747 2abd 2219 d5bb c6db 5e3c
00000180: da00 25bd d058 4f3d 8fcc d9bc 3348 0b3d
00000190: ec79 d83a 7c34 fdbc b20b 5c3d bb86 b4bb
000001a0: ca1e 1f3c 255b 563d 060b 54bd 427a 3a3d
000001b0: fc3b dbbc dc17 35bd d73f 013d 4893 8abc
000001c0: 2558 32bd 42da d8bc 9ee6 103d 3b83 bf3c
000001d0: a9a6 85bb 5609 ed3c 8fb7 433c 1798 25bd
000001e0: 6ba8 4b3c c886 2c3d 33ae 48bb 1430 e4bb
000001f0: 3db6 593d 9f07 8cbc cb8e 5b3d 9783 503d
00000200: 6bd8 423d f333 7e3c 0ce8 7d3c 97e2 713c
00000210: 96bb 51bd 7871 b5bc e640 01bd a7de 07bc
00000220: 1bb9 e2bc dc98 86bc b986 16bd 16c2 21bd
00000230: af98 8e3c 942b 603d 1a4e b0bc f9d3 12bd
00000240: 3433 9cbc c74a babc 1991 66bd 59c9 443d
00000250: e5c0 1d3d 3e08 323d c7d0 e7bc 82e3 16bd
00000260: e73d 5b3d 425b 0bbd 28b7 41bd 57df 3abd
00000270: 8323 973c e620 bebb 1361 04bd 646f 403d
00000280: a3ea febc cd8d 703b 55a7 e43c 6231 da3c
00000290: 99ae 3e3d 9185 ecbb fd06 ea3c 2bd8 6abb
000002a0: 3941 0a3c f021 00bd 4724 0b3d dc68 523c
000002b0: 6fe5 403c 26bc 76bb 05b8 b83c 03e3 5dbd
000002c0: f18b 373d d1e0 323d 8037 003d 4948 03ba
000002d0: d19f 56bd 4212 7cbc 6e72 38bd a4bd dbbc
000002e0: 2271 343d b570 ccbb 6be0 623d 887a ebbc
000002f0: df02 d2bc fadc 31bd f528 ad3c b198 ac3c
00000300: 5181 ec3c b937 473d 87be 0a3d 6def 50bd
00000310: 89cf ba3a 3c96 483d 12e0 273d 06d3 bf3c
00000320: 23b4 cabc ba95 3abd 2b48 5f3d d265 95bc
00000330: 2e12 9a3c 4e9c 77bc e728 93bc 89d8 af3c
00000340: d265 5a3d 825f 4ebc 3c6a db3c 857b c33c
00000350: dca0 19bc 501f 2c3c bd20 9f3c 63ce 553d
00000360: 2864 a0bc e15f 2e3d 1e9d 62bb c009 c73c
00000370: d721 39bd a428 193d a138 3f3d 3cc3 4e3c
00000380: 0a5e 0a3b c378 833c 4ca9 2dbd 7355 44bd
00000390: 88ec 303d 038b 4ebd e2ff 3ebc 64ab 0abd
000003a0: ff02 55bd d5af c2bc 9d3c 49ba 39e9 38bd
000003b0: a8dc 2bbd ebd8 34bd 0399 eeb9 29d5 5ebc
000003c0: f1c6 233d e4dd 5ebd 981d 48bd f5da 8abc
000003d0: 4902 693d 2989 563d 7119 f3bb 2e15 61bc
000003e0: c9a7 123c 716d 513b a7d1 be3b 6fd2 c3bc
000003f0: 50f8 2dbb a1c4 2c3c 58aa 073d 55aa 0fbd
0.04378882 0.037254278 -0.0018088572 0.04023626 0.009994097 -0.0033731093 0.017063342 2.079605e-05
-0.014514964 0.009344126 -0.00063007034 -0.03800071 -0.04050187 0.018537687 -0.022318464 0.0008407993
0.048932232 0.041549966 0.031665288 0.03031678 0.03730516 -0.0377683 0.05141992 -0.04174387
-0.03649727 -0.022142041 0.055005178 0.031371538 0.017110692 0.03258079 -0.053974096 -0.052883122
0.019132964 -0.013168034 0.028463097 -0.039295293 0.051566903 -0.050106328 0.02837054 0.031593923
-0.029709019 0.050692778 0.030710332 -0.025215121 -0.026444029 0.041348547 -0.014793486 0.0032841028
0.026699556 0.026544284 -0.026844427 0.042649787 0.017236535 0.018004607 -0.025977088 0.025438782
-0.005831051 0.0413189 0.029095598 0.04064195 -0.007590338 0.03633225 0.043005444 0.01240382
-0.00352599 -0.036530327 -0.028852776 0.032199465 -0.034266803 -0.027491033 0.029548815 -0.029567951
-0.04442202 0.011626063 0.02362121 -0.049696572 0.0087079555 -0.043551765 0.024318162 0.031672463
0.018541778 0.054395135 -0.010970926 -0.022381319 0.014865389 0.016429141 -0.024751164 -0.036987934
-0.015972802 0.024486687 0.024691764 -0.02404052 0.047562692 -0.041572418 -0.00650324 0.013602203
-0.040284015 0.050621808 -0.026586799 0.0340044 0.0016515828 -0.030908816 0.05372209 -0.005509225
0.0097119305 0.052333016 -0.051768325 0.04552675 -0.026762001 -0.044212207 0.031555023 -0.016915932
-0.043541092 -0.026471261 0.035376184 0.023378005 -0.0040787053 0.028935116 0.011945619 -0.040428247
0.012430291 0.042120725 -0.003062141 -0.006963739 0.05315231 -0.017093478 0.053602975 0.050906744
0.047569674 0.015515315 0.015497219 0.014763496 -0.051204287 -0.022148833 -0.031556033 -0.008292831
-0.027676156 -0.01643031 -0.036749575 -0.039491735 0.01740679 0.05472906 -0.021521617 -0.035846684
-0.019067384 -0.022740735 -0.05629072 0.048043583 0.038514037 0.04346489 -0.028297795 -0.036838062
0.05352583 -0.034022577 -0.047293812 -0.04562315 0.01844955 -0.0058022616 -0.03231914 0.04698123
-0.031117743 0.0036705614 0.027911821 0.026634876 0.046553228 -0.007218071 0.028567785 -0.0035834413
0.008438402 -0.031282365 0.033970144 0.012842383 0.011773451 -0.0037648766 0.022548685 -0.054171573
0.044811193 0.043671433 0.03130293 -0.0005008025 -0.052398507 -0.015385212 -0.045031004 -0.026823826
0.044053204 -0.0062390217 0.055389803 -0.02874495 -0.025636135 -0.04342363 0.021137694 0.021068903
0.028870257 0.048637126 0.033873107 -0.051009584 0.0014252524 0.0489714 0.040985174 0.023416054
-0.024744099 -0.045552947 0.054512184 -0.018237028 0.018807497 -0.01511295 -0.01796384 0.021465557
0.05331976 -0.012596013 0.026784055 0.02386261 -0.009376731 0.010505512 0.01942479 0.05219878
-0.019579008 0.042571906 -0.0034578512 0.024296641 -0.045198288 0.037392274 0.046684865 0.01261979
0.002111318 0.016048795 -0.042397782 -0.047933053 0.043194324 -0.05042554 -0.011657687 -0.033854857
-0.05200481 -0.023765484 -0.00076765736 -0.045144293 -0.04195848 -0.04415218 -0.000455089 -0.013600626
0.039984647 -0.05441083 -0.048856348 -0.01695011 0.056886945 0.0523769 -0.0074188043 -0.01373796
0.008951136 0.0031956101 0.0058233324 -0.023904053 -0.002654571 0.010544927 0.033121437 -0.03507455

lin1.bias f4 [2]
00000000: 43ef ccbc 8278 d9bc
-0.025016433 -0.02654672
