src/deep_ant/Models/model_synthetic-sine-mean.pt (torch, 73923 bytes, 8 tensors)

conv1.weight f4 [128, 2, 2]
000000 c3 31 c6 3e 67 2c d7 3e 40 1d 27 be 24 18 d8 3e
       0.3870984 0.42026064 -0.16319752 0.42205918
000010 b0 5c e0 bd 38 a2 ce 3d 10 45 79 be 28 58 96 3e
       -0.10955179 0.100895345 -0.24342752 0.29364133
000020 4a aa dc 3e 51 75 c0 be 24 57 dd 3e 9c 45 b2 3d
       0.4309867 -0.37589505 0.43230546 0.08704683
000030 32 1b c6 3e 39 d5 a9 3d 9e 7a 83 3e d1 ba 5f bd
       0.38692623 0.08292622 0.25679487 -0.05462152
000040 eb 97 c6 3e c9 cc a2 3d bf f7 58 be 6e 11 15 3e
       0.3878778 0.07949216 -0.21188258 0.1455743
000050 ac e5 6b be c0 2c 70 bd fc f3 4f be ae d2 a9 3e
       -0.23036832 -0.058636427 -0.20307916 0.33168548
000060 1a d8 bd be 61 6a 50 be 5b 5a 14 be 9f e1 ac be
       -0.37078935 -0.2035308 -0.14487593 -0.33765885
000070 3b df 8a 3d bf d3 00 bf 13 6a e9 3e be 02 df be
       0.06780859 -0.503231 0.4558874 -0.4355678
000080 ce 56 cc 3e 07 2a bc 3d 3f 83 00 be 19 01 a8 3e
       0.39909977 0.091877036 -0.12550066 0.32813337
000090 cf 9b 9d 3d 00 59 cb 3e c5 66 84 3d 6d 79 05 be
       0.07695734 0.3971634 0.06464914 -0.13034602
0000a0 dd 9c 17 3e b0 06 19 be d1 d6 62 3e ff 1f e4 3e
       0.14805932 -0.14943957 0.22152258 0.4455566
0000b0 f1 05 9a 3e f3 18 6d be a0 e8 83 3e 9a 71 8e 3d
       0.30082658 -0.23154049 0.25763416 0.069552615
0000c0 6c 79 81 3e 31 5a 94 be 3c 05 05 bf 1f 7e 40 be
       0.2528795 -0.2897506 -0.5196111 -0.18798111
0000d0 75 4a c0 be 90 e1 dc 3e 46 c6 27 3e 41 d8 60 3e
       -0.37556806 0.4314084 0.16384229 0.21957494
0000e0 0d a9 23 3e eb 5f df bc fd 19 d3 3e d1 bf b0 be
       0.15982457 -0.027267417 0.41230765 -0.34521344
0000f0 50 bd 64 3d cb dc c5 be 0d 77 10 3e 29 99 01 be
       0.055844605 -0.38645014 0.14107914 -0.12656082
000100 28 b1 31 3e 60 69 ff bd 38 74 e1 3e c0 d3 83 be
       0.17352736 -0.124712706 0.4403398 -0.2574749
000110 91 4f 8e be 1e 82 b2 be 23 90 f1 3e 87 e4 37 3e
       -0.2779508 -0.34864897 0.4718028 0.1795827
000120 68 a1 fb 3e 6f cc c5 be a7 2b 08 bf fa 82 c8 be
       0.4914658 -0.38632533 -0.5319161 -0.39162427
000130 65 e4 a9 be 3b a6 4f 3e 53 d0 36 3e c5 b8 e2 3e
       -0.33182064 0.20278256 0.17852907 0.44281593
000140 fc b3 7a be ef 43 c8 be f5 c5 94 3e aa 8f 41 be
       -0.24482721 -0.3911433 0.2905728 -0.1890246
000150 82 4e 9f 3e c6 06 19 be 7c f2 9f 3e 4e 43 b3 be
       0.31114584 -0.1494399 0.31239688 -0.35012287
000160 ee b4 7f be 7a c1 1b 3e fd bd e7 3d 88 dc fc bd
       -0.24971363 0.15210524 0.11315534 -0.123467505
000170 82 ee 7f 3e ab 0e ba 3e 77 75 d1 be c2 74 6e be
       0.24993327 0.36339316 -0.4090993 -0.23286727
000180 bd 96 e6 3e a8 e3 25 be 38 f7 2c be 32 44 f7 be
       0.4503688 -0.16200125 -0.16891181 -0.48294216
000190 1c bc 99 be dc f3 03 3e 72 57 92 bd 19 78 cc be
       -0.3002633 0.12885994 -0.07145585 -0.39935377
0001a0 42 d5 6b 3c 0f a3 b4 be a1 65 de be 3a f8 8c be
       0.014394106 -0.35280654 -0.43436912 -0.27533132
0001b0 b8 8e db be 11 ab af be 54 4d 06 3f 5d 99 02 3e
       -0.42882323 -0.343102 0.52461743 0.12753816
0001c0 0b b1 1f 3e c6 52 e3 be 50 1a a5 be f8 2b 2a be
       0.1559488 -0.4439909 -0.32246637 -0.16618335
0001d0 a4 d1 63 3d 98 9b da be b2 ac 68 be 8f 5b b7 be
       0.05561985 -0.42696834 -0.22722128 -0.3581204
0001e0 e5 e7 b7 bb 7c 53 26 be 74 bd 85 bc a9 80 ba be
       -0.005612361 -0.16242784 -0.01632569 -0.36426285
0001f0 de 05 b7 be 67 13 87 be 93 c1 4c be 27 07 d5 be
       -0.35746664 -0.2638199 -0.19995718 -0.4160702
000200 bd f3 dd 3e 75 15 a3 bd 81 79 f1 3e 0c 6d 0b 3e
       0.4335002 -0.07963077 0.47163013 0.13615817
000210 d1 45 d4 be 03 7b c0 3e f1 28 03 be 9d c2 5d be
       -0.41459516 0.3759385 -0.12808587 -0.2165627
000220 04 46 cf be d9 9c 0a bf 3a b5 05 3e 87 c1 a8 bd
       -0.40483105 -0.5414558 0.13057414 -0.082400374
000230 63 99 1f 3e 34 ee d0 be 0d 3d aa 3e ba dd d1 be
       0.15585856 -0.40806735 0.33249703 -0.40989476
000240 b0 b0 7d bd f4 d8 c6 3d 92 44 98 3e 64 95 df 3e
       -0.06193608 0.09709349 0.29739815 0.43668664
000250 41 40 fd 3e 98 c7 ce be b4 95 d6 3d c4 40 6b be
       0.49463084 -0.40386653 0.10477772 -0.22973925
000260 5e 52 84 bd b9 c1 c0 be c7 17 f4 3e ea e0 bd be
       -0.06461023 -0.376478 0.4767439 -0.37085658
000270 23 97 88 3e 3f 7a 45 3e 4e 8b 0b 3e f6 69 99 be
       0.26677808 0.19284914 0.1362736 -0.29963654
000280 f0 6a e5 3e 51 ac eb 3d b8 62 8c 3d ca 24 f5 be
       0.4480815 0.11507476 0.068547666 -0.4787963
000290 19 42 67 3e 8e 73 c6 bd 43 f3 54 be e7 4b e1 3e
       0.22583808 -0.09690009 -0.20795922 0.4400322
0002a0 58 0b ec 3d 9c 70 97 be 4b e3 83 be 7b 09 fd bc
       0.11525601 -0.29578102 -0.25759348 -0.03088831
0002b0 8c 1b 93 3e 47 47 0c be 6e 83 97 be f2 88 32 be
       0.28731954 -0.13699065 -0.2959246 -0.17435053
0002c0 01 51 bd be b3 a3 3d 3e 5d f5 cd 3e f8 32 fd be
       -0.36975864 0.18519478 0.4022626 -0.4945295
0002d0 b0 1a fe 3d f8 fd 91 3e f6 ee 9a 3d 4d a0 4c be
       0.12407434 0.28514075 0.075651094 -0.19983025
0002e0 c1 2d 89 3e 29 40 7f 3e 4e fd 2e 3e f2 fc ee bd
       0.2679272 0.24926819 0.17088816 -0.11669339
0002f0 99 bd ee bd 69 45 40 3d 9a 67 9d bd e4 22 0c be
       -0.11657257 0.046941195 -0.07685776 -0.13685185
000300 c2 7b a5 3e b8 77 dc 3e 7b 87 d0 bc e7 78 d9 bd
       0.32320982 0.43060088 -0.025455227 -0.106187634
000310 10 da 38 39 94 d1 7d bd db f9 f7 3d 45 24 15 3e
       0.00017628842 -0.061967447 0.12108203 0.14564617
000320 7e 79 f0 be 10 c3 45 be c6 53 e7 3e 10 54 4d 3e
       -0.4696769 -0.19312692 0.45181102 0.20051599
000330 47 59 d6 bc 02 22 96 be b8 e6 9b be 20 54 ea be
       -0.026165618 -0.2932282 -0.30449462 -0.45767307
000340 f2 d6 32 be 5b f9 27 3e 74 c7 a2 3e 5e b4 67 3e
       -0.17464808 0.16403715 0.31792796 0.22627398
000350 bf a9 e4 be e2 ef 93 be af 23 8e bd 32 6d 00 3f
       -0.44660756 -0.28893954 -0.069404 0.5016662
000360 18 21 94 3d d0 97 04 be 7c d2 53 3e e8 02 43 be
       0.07232875 -0.12948537 0.20685762 -0.19044077
000370 02 8f a3 be a5 60 bf 3e 94 c5 66 be c4 98 de bd
       -0.31945044 0.3737842 -0.22536308 -0.108689815
000380 3c 5c f7 be 68 69 a3 3e 14 f4 b9 3e 79 b1 3a 3e
       -0.48312557 0.31916356 0.3631903 0.18231763
000390 df 0c b1 be 36 76 f8 be 47 23 d2 be c4 c6 be 3e
       -0.34580132 -0.48527688 -0.4104254 0.3726102
0003a0 bc 89 82 3e f5 89 d7 3e 21 e0 87 3e f9 39 12 3e
       0.25495708 0.4209744 0.26538184 0.14279927
0003b0 80 71 a0 bb c2 fc c4 be 5b ea e4 be 02 73 ef be
       -0.0048963428 -0.3847409 -0.4471005 -0.46767431
0003c0 e4 09 62 3e 24 23 7e be 4f 6c da bd 83 0e 98 be
       0.22074085 -0.24818093 -0.106651895 -0.29698572
0003d0 c9 1a ec bd b1 5f a3 be 12 1a b6 be 2c 7e 29 3e
       -0.11528546 -0.31908944 -0.35566765 0.16552037
0003e0 b3 c3 1a be 0e fd a3 3e 1b 35 42 be 83 d7 ce be
       -0.15113716 0.32029003 -0.1896557 -0.40398797
0003f0 da ed bf bd 11 03 5a be 9d 22 ff bd 1e e6 00 bf
       -0.093715385 -0.21290232 -0.12457774 -0.5035113

conv1.bias f4 [128]
000000 97 ee 28 3e 96 4b c3 be 25 b2 a5 be f9 6c cc be
       0.16497265 -0.38143605 -0.32362476 -0.3992689
000010 4e 19 de 3e a6 6a f2 be bd ae c2 3e 4b fb 6c bc
       0.4337868 -0.4734699 0.3802394 -0.01446421
000020 b6 81 50 bd 7a 45 a4 3e 87 b2 a3 bc 1e 94 a0 3e
       -0.050904952 0.32084256 -0.01998259 0.31363004
000030 92 52 bb 3e 22 ea d3 be a2 d8 3e 3e ac 44 c1 3d
       0.36586434 -0.41389567 0.18637326 0.09436926
000040 0b c6 ce 3d c4 8f bb 3d 01 2b 2e 3e 32 55 61 be
       0.100963674 0.091582805 0.17008592 -0.22005156
000050 3c ec 2e bd 3b b7 f0 3e 50 93 ac 3e 04 e5 9e 3b
       -0.04270576 0.47014794 0.3370614 0.004849078
000060 d0 7f f4 be 75 1e 2a 3d fc 42 a8 be e6 4e cf 3e
       -0.47753763 0.041532952 -0.32863605 0.40489882
000070 80 bb a4 be a9 aa 30 bc cf 88 c5 bd 6d f4 9e 3d
       -0.321743 -0.010782876 -0.09645235 0.07761464
000080 1b 84 ef 3e 43 43 8f 3d 54 b3 91 3e ff 8c c0 3e
       0.46780476 0.06995251 0.2845713 0.3760757
000090 69 79 ca 3e 51 1a 03 be 07 a0 c9 bd 93 ef 78 3e
       0.39545754 -0.12803008 -0.09844976 0.2431014
0000a0 d6 e8 d0 bd b3 90 6b 3e 7a 1f cb bd aa fb a7 be
       -0.1020066 0.23004417 -0.09918113 -0.32809192
0000b0 3b e9 4b 3e 69 89 a6 3d c5 8c 67 3e 31 cb fe 3e
       0.19913189 0.08131678 0.22612293 0.49764398
0000c0 aa ea af 3e db 77 ee 3e e6 b8 94 3d d2 12 de be
       0.34358722 0.46575817 0.07261829 -0.43373734
0000d0 56 2a b4 be 26 6a 9a be 7e 99 e1 be 86 46 80 be
       -0.3518855 -0.3015911 -0.44062418 -0.25053805
0000e0 8f 33 f6 be 51 2e ed be e2 ff 99 be df 9d f5 be
       -0.4808621 -0.463244 -0.30078036 -0.4797201
0000f0 e0 a8 98 be 79 c9 46 3e 5c de d4 3e 78 34 04 be
       -0.2981634 0.19412793 0.41575897 -0.1291064
000100 e7 46 aa bd ff df 82 3e 85 0f 72 be 32 19 5b be
       -0.08314305 0.2556152 -0.23638733 -0.2139633
000110 9e 0e a3 3e cb 79 dd be 62 f9 86 3d af 82 df 3e
       0.3184709 -0.43256983 0.06590535 0.4365439
000120 b2 28 ae 3d a4 f4 0f 3e 54 ca 90 be 85 c3 9a 3c
       0.08503856 0.14058167 -0.28279364 0.01889206
000130 ef e0 e8 3c 08 72 09 3e bc c7 4c 3e 41 5c dd 3e
       0.02842757 0.13422406 0.19998068 0.43234447
000140 32 19 bc be 87 bf 5f 3d 30 20 6a be c4 f4 bf be
       -0.36737972 0.054626014 -0.22863841 -0.3749143
000150 9c 4b 2a 3c b2 dc d7 be 10 81 b3 3e 1b 8c 24 3d
       0.010394003 -0.42160565 0.35059404 0.040172677
000160 b8 10 82 be 32 e8 84 3e 36 00 ed be fe 67 36 be
       -0.2540338 0.259584 -0.46289223 -0.17813107
000170 29 83 98 bd 7b 38 d2 be 44 d6 9f be 76 4c 0a bd
       -0.07446892 -0.41058716 -0.3121816 -0.033764325
000180 e5 e9 c1 3e 5d c3 f7 3e 45 dd 9c 3e ad fe 98 be
       0.3787376 0.48391238 0.30637565 -0.29881802
000190 1b f8 93 be 0c df e2 3e c8 e2 38 3e c7 9a 6d 3a
       -0.28900227 0.44310796 0.1805526 0.0009063896
0001a0 b4 3e ba 3d c3 f0 c7 be 86 17 19 be 4b de f4 3e
       0.09093991 -0.39050874 -0.1495038 0.47825846
0001b0 d9 ec a0 bd 45 b9 ac bb c5 75 cc be a5 92 8e be
       -0.07857675 -0.0052711093 -0.399336 -0.27846256
0001c0 13 2a d2 bb 05 96 93 be 13 50 c6 bc 28 93 4e 3e
       -0.006413707 -0.28825393 -0.024208104 0.20173323
0001d0 96 87 f4 be 99 1e 1e 3e 7c 30 a4 be 86 ff 63 be
       -0.47759694 0.1544136 -0.3206824 -0.22265443
0001e0 30 dd 45 3e 10 61 cc 3e a5 2c 0a be 1c 36 52 be
       0.19322658 0.39917803 -0.13493593 -0.20528454
0001f0 16 8c e9 be dd d2 86 be 3e 8c e1 be 4a 12 c6 bd
       -0.4561469 -0.2633275 -0.4405231 -0.09671457

conv2.weight f4 [32, 128, 2]
000000 57 b5 1a 3d 34 17 47 bd 5e 84 5f 3d b0 9c 20 3d
       0.037770595 -0.048606113 0.054569595 0.03921193
000010 84 8f 30 bd 88 55 61 bc 01 e7 11 3d 53 5a 42 3b
       -0.043105617 -0.013753302 0.035620693 0.0029655888
000020 5e 9b fb 39 c6 0b eb bc cc 9f 4d 3d 82 1a 0f bd
       0.00047990208 -0.028692137 0.050201222 -0.03493739
000030 6b 12 f1 3c c7 4e 6a ba 8f 06 da 3c 70 72 a6 3d
       0.029427728 -0.00089381303 0.026614456 0.08127296
000040 df 1b a0 3c 8a cf a6 bc be 01 f2 bb cd 0c 31 3d
       0.01954454 -0.020362634 -0.0073854616 0.0432251
000050 b9 13 94 bc 49 bc 0b 3d d0 44 2b bd 1f 4c 51 3d
       -0.01807581 0.03411511 -0.04181367 0.051097985
000060 17 3e 20 3c 2e 2c e9 bb ac 47 3b 3d 46 1c 83 3c
       0.009780428 -0.0071158623 0.04572265 0.016004693
000070 33 57 2c 3d 2b da 3e bd f7 d6 3b 3b 6c d1 6c 3d
       0.042075347 -0.04659478 0.0028662065 0.057816908
000080 85 be 9f 3d 1d 0a 39 3d d8 a8 d3 bc 39 43 9d 3d
       0.078000106 0.04517566 -0.025837347 0.07678837
000090 cb b7 cf bc 9a d3 92 bc e1 7c 31 bd 6a 68 20 3b
       -0.025356194 -0.017923165 -0.043331984 0.0024476298
0000a0 7c 30 3b 3d b4 ad 0b 3d 44 b7 f4 bc aa 19 cc 3c
       0.045700535 0.034101203 -0.029872544 0.024914581
0000b0 55 01 df bc c1 c9 55 3d e3 98 92 bd 68 e6 5a bd
       -0.027222315 0.05219436 -0.07158067 -0.05344239
0000c0 43 25 6b bd 3b 2d 03 bd 03 a3 5d bc ff ae 23 3d
       -0.057408582 -0.032025557 -0.013527635 0.03996181
0000d0 48 02 80 bc e0 0d 57 3d a6 48 99 3c 08 f9 4c 3d
       -0.015626088 0.052503467 0.0187114 0.050042182
0000e0 4a e9 e3 3c 64 6e 42 3d e7 6e 35 bd 84 84 87 3d
       0.027821202 0.047468558 -0.044295218 0.06617072
0000f0 6f a0 3a 3c 34 79 37 bd 42 7b 67 bd 6a e8 76 bd
       0.011390789 -0.044793323 -0.056514032 -0.06028024
000100 db 5a 13 3d 95 91 0f bd 45 4e 16 bc f4 d7 99 bb
       0.03597532 -0.035050947 -0.009173934 -0.004694933
000110 2c a9 6e bd dd 9c 03 3d 7a 33 06 3b 41 44 2f 3d
       -0.058266804 0.03213202 0.002047746 0.0427897
000120 b5 a6 5a 3d a2 74 42 bd 1a 2e a8 3d 02 d9 a5 3d
       0.05338164 -0.04747451 0.08211918 0.080980316
000130 05 9a 0e 3d 08 5c 01 bd b1 ce 9c bc 3b 61 d3 bc
       0.034814853 -0.03158191 -0.019141527 -0.025803199
000140 ad 11 27 bc ef d9 d4 3c 6d 28 0c 3d 34 24 60 3d
       -0.010197085 0.025982825 0.03421824 0.054722026
000150 dd b8 24 bd 04 bc bc 3c fb 98 35 3c d4 95 86 bd
       -0.040215362 0.023038872 0.011083837 -0.06571546
000160 2d a6 98 bd ed 5b 37 bd c4 b3 2e 3d c3 c4 9b bd
       -0.074535705 -0.0447654 0.042651907 -0.07605889
000170 04 54 27 bd 63 62 11 3d 07 8a bd 3c d3 aa 35 3d
       -0.040851608 0.03549422 0.023137106 0.044352364
000180 80 98 21 bd 37 fd 56 bd 99 54 27 3d 75 f8 7e 3d
       -0.039452076 -0.05248758 0.040852163 0.062248666
000190 ff c0 42 3d c4 53 00 3d b6 2e ab b8 fb f3 42 3d
       0.047547337 0.031329885 -8.162616e-05 0.04759596
0001a0 8f 42 a6 bc e7 9e 39 bc c6 e0 ab 3c f6 b3 7f bd
       -0.02029541 -0.011329389 0.020981204 -0.062427483
0001b0 60 29 0d bd b2 e0 3a 3d 55 35 5e bc 3b 1a bb 3a
       -0.034463286 0.045624442 -0.01356252 0.0014274785
0001c0 99 03 f4 bb 02 6f 4c 3c 78 65 02 3d 9b ff 40 bd
       -0.007446718 0.012477638 0.03183505 -0.047118764
0001d0 d7 95 d2 3c 13 1e 3a 3d a6 68 89 bd b5 d3 51 3d
       0.025706215 0.045438837 -0.06709413 0.05122729
0001e0 ae cc 29 bd 55 96 b8 bc 8c 05 00 bd f6 37 38 bd
       -0.041454963 -0.022532621 -0.03125529 -0.044975244
0001f0 3b e0 a9 bd da 26 58 3c 9b e9 1e bc 4b 80 90 bd
       -0.08294722 0.013192857 -0.009699251 -0.0705572
000200 c0 22 18 bc f1 76 b4 3d 37 ff 2e 3d 13 fe 41 3d
       -0.009285629 0.08811749 0.04272386 0.047361445
000210 9b 78 96 bc ca 0f 6d bc d7 ae 15 bd c1 7a ba bc
       -0.018368056 -0.014469096 -0.036543693 -0.022763612
000220 ea d8 db bc e1 94 13 3c 44 a6 e8 bc 92 76 df bc
       -0.026836831 0.0090076635 -0.028399594 -0.027278218
000230 1d a2 50 bb 5b 03 93 bc b3 9d 19 3c 96 f0 a9 3c
       -0.0031834908 -0.017945936 0.009375977 0.020744603
000240 c1 19 ee bc eb a3 84 bd f1 62 b3 3c d4 96 d8 3c
       -0.029065015 -0.06476577 0.021897765 0.026439108
000250 72 d7 84 bd b4 ec 31 3d 7b d2 46 bd 83 22 04 3d
       -0.064864054 0.04343863 -0.048540574 0.032259475
000260 be b6 3e 3c 2f 54 79 bd ff 8d 74 3d e3 7f 23 bd
       0.011640249 -0.0608713 0.05970573 -0.039916884
000270 72 2d d4 bc a6 d7 9a ba 0c 68 cb bc c2 f1 84 3d
       -0.025900576 -0.0011813536 -0.024829887 0.06491424
000280 f5 5b 0d bb cb a3 0c 3d ee 84 a3 bd a5 6f e8 3c
       -0.0021569703 0.034335893 -0.07984339 0.028373549
000290 a5 f2 ef bc 0c b4 58 bd df 86 e3 bc cf 89 19 3c
       -0.029290507 -0.05290608 -0.027774272 0.009371235
0002a0 dd e8 cc 3c 08 87 97 bd b3 39 75 bd 2f 70 b9 bb
       0.025013382 -0.07398802 -0.05986948 -0.0056591253
0002b0 c0 d0 7a 3c f2 ec f8 3c 19 09 39 3d ac da 70 3b
       0.015308559 0.030386422 0.04517469 0.0036751432
0002c0 e9 36 18 3d 1d 04 3c 3d a6 36 98 bb 21 63 45 3d
       0.03716174 0.04590236 -0.0046451865 0.04819024
0002d0 8d 91 ea 3b 95 e0 2f 3d d9 8d 63 bd b1 42 4c bd
       0.0071584643 0.042938787 -0.0555552 -0.04986829
0002e0 8d 79 a3 bb 3b 7b ac 3c 32 31 90 3c 15 c7 49 bd
       -0.004988855 0.021054855 0.017601583 -0.049262125
0002f0 85 95 34 3d fd e8 ce bc 6f 03 8c 3d a8 06 a6 3c
       0.044087905 -0.025257582 0.068365924 0.020266846
000300 4a 7d 92 bd c3 59 64 bd 51 48 45 bd 1f a8 e9 3c
       -0.07152803 -0.055749666 -0.04816467 0.02852255
000310 ef 72 19 bd 35 4b 48 bc b0 42 b5 bc b8 ca 5c bd
       -0.037463125 -0.012224962 -0.022126526 -0.053904265
000320 0e 1b 1d 3d c9 ad 49 bd 20 d6 80 bd 83 e3 7e bd
       0.03835588 -0.049238 -0.06290841 -0.06222869
000330 ce eb 4a bd 69 00 28 bd 38 2b 06 3d ce 6b a1 ba
       -0.049541287 -0.041016016 0.03275606 -0.0012315453
000340 d9 37 b7 ba 3c 7b 1f 3d 3d d8 c7 bb 55 d5 37 bd
       -0.0013978436 0.038935885 -0.0060987757 -0.044881184
000350 69 9c 5e bd 43 b2 88 3c 6f 9d ef bc c2 6b 06 3d
       -0.054348383 0.016686564 -0.029249875 0.03281761
000360 5e b5 ff 3c 57 83 77 3c e2 43 0c 3d e4 6e 89 3d
       0.031214412 0.015106997 0.034244426 0.06710604
000370 5a a5 f1 3c cc a7 ee bc 5b df 80 3d ff 73 05 bd
       0.029497791 -0.029132746 0.06292602 -0.032581326
000380 83 3b fe bc 4e 66 7e 3d 28 f3 d9 3c 11 4a e9 3b
       -0.031034237 0.062109284 0.026605204 0.007119425
000390 58 e9 79 bc ff 96 ac bd e4 1e a1 bc 57 de 2b 3d
       -0.015253387 -0.08427238 -0.01966805 0.041960087
0003a0 22 ef e0 bb 98 83 49 bc 8e 5b 17 3c 81 cd 28 bc
       -0.0068644444 -0.012299441 0.009238137 -0.010302902
0003b0 15 18 6d 3d 1f 78 7b 3c ca c4 9a 3c 53 2b 6f bc
       0.057884295 0.015348463 0.018892664 -0.014597732
0003c0 dc 9c d4 3c d5 7c b5 3c f0 da fe 3b 1c 9c 44 3d
       0.025953703 0.022154251 0.007777564 0.04800044
0003d0 21 a6 80 3d 9a 4a 92 3d 80 ce 44 3d ac ea 82 bc
       0.062816866 0.07143135 0.048048496 -0.01598104
0003e0 0a d4 3e bd 5e 33 9c 3c 75 c6 d0 3b 86 23 8e bc
       -0.046588935 0.019067463 0.006371314 -0.017350923
0003f0 17 17 80 bb 52 63 dc 3a 35 38 6d 3c 6e f1 bc ba
       -0.0039090025 0.0016814268 0.014478733 -0.0014415213

conv2.bias f4 [32]
000000 3e 4d 8f bc 22 ea 2f bd b3 1b 2c bd ac 8c 85 bc
       -0.017492887 -0.042947896 -0.042018604 -0.01630243
000010 15 dd 34 3d 67 65 8e 3c d0 c0 9d bc 10 16 5e bd
       0.044156153 0.017382337 -0.01925698 -0.05422026
000020 49 35 38 bd 41 b0 7f 3c 04 45 62 3d 32 d7 03 3d
       -0.04497269 0.015605987 0.0552416 0.032187648
000030 d3 89 07 bc a5 84 e9 3c 4b 8d a9 3b b8 b8 0c 3c
       -0.008272606 0.028505633 0.005174314 0.008588962
000040 a9 e7 ad 3c b8 b3 85 bc 9a b6 81 3c c3 d1 10 b8
       0.021228628 -0.016321048 0.015834142 -3.452763e-05
000050 61 a2 98 3c 34 62 47 bc e3 e9 2b 3d 20 c1 6d bd
       0.018632116 -0.01216941 0.0419711 -0.058045506
000060 a1 a0 28 3d 99 9f 4b bd e4 ae 38 bd 12 11 1b bd
       0.041168813 -0.04971275 -0.045088664 -0.037858076
000070 22 62 3b bc 60 b3 50 bc b6 73 7c bd 61 f7 20 3d
       -0.011436971 -0.012738079 -0.061633788 0.03929842

conv3.weight f4 [32, 128, 2]
000000 88 eb 7b 3c 5c 21 7a 3d 84 b1 36 bd 6a db 4d bd
       0.015375979 0.06106697 -0.044602886 -0.050258078
000010 70 0f 76 3c 98 37 45 3d e2 e8 2a 3d b8 b1 cf 3c
       0.015018329 0.04814872 0.041726 0.025353298
000020 c0 37 2c 3c d8 36 ff 3c d8 c4 cb bc dc 56 7f bd
       0.010511339 0.031154081 -0.024874136 -0.062338695
000030 bc 1f 55 bd 34 b8 23 bd a0 a9 64 3c 32 34 65 3d
       -0.052032217 -0.03997059 0.013956457 0.05595798
000040 da 35 25 3d e6 17 27 bd d4 c5 8e 3c 58 74 62 3d
       0.04033456 -0.040794276 0.017428316 0.055286735
000050 c0 6a c9 3a 48 c9 3e bc 30 ae 0a bd 00 d4 94 bb
       0.0015366897 -0.011644669 -0.033857524 -0.004541874
000060 64 a4 40 3d 58 91 90 bc 50 a4 1a bc 54 6b f8 3c
       0.047031775 -0.01764743 -0.009438589 0.030324616
000070 a8 45 c4 bc 24 89 ec bc a8 ef 2c 3c 24 5a 39 3d
       -0.023958996 -0.028873987 0.010555185 0.04525198
000080 10 75 da 3b a0 f6 24 bb 94 5c 4b bd b6 dd 18 3d
       0.006666787 -0.0025171414 -0.049648836 0.037320815
000090 60 eb 3a 3b 14 61 e1 bc 8c 3a 61 bd 80 eb f2 bc
       0.0028521642 -0.02751211 -0.054987475 -0.02965331
0000a0 dc e8 33 bd d8 b0 51 3c f4 96 3b 3d 68 6a 4a bc
       -0.043923244 0.0127985105 0.045798257 -0.012354471
0000b0 f8 d1 1b 3d 18 9c 59 bc 40 ad f3 bc b8 47 6a bd
       0.03804204 -0.013281845 -0.029745698 -0.057197303
0000c0 ce 8c 2b bd c4 2c 40 3d c2 6c 2c 3d fc 00 77 3d
       -0.04188233 0.04691769 0.042095907 0.060303673
0000d0 e0 a1 ce bb 9c 12 ad 3c 10 5b fb bb 4a 62 7d 3d
       -0.006305918 0.021127038 -0.0076707676 0.061861314
0000e0 68 21 4c bd 0c 06 8b bc 54 75 75 bd b0 3f ca 3b
       -0.049836546 -0.016970657 -0.059926346 0.006172143
0000f0 96 4d 47 bd d6 8a 33 bd 78 d0 6c 3c 36 b4 7e 3d
       -0.048657976 -0.043833576 0.014454 0.06218358
000100 de 5f 55 3d 44 e3 2f 3d 28 72 7d bc 00 55 f7 ba
       0.05209338 0.042941347 -0.0154691115 -0.0018869936
000110 a6 23 66 bd 8e 16 2c 3d ac e3 8b 3c 6c 4b 59 3d
       -0.05618634 0.042013697 0.017076336 0.053050444
000120 14 e0 78 bd 58 b9 79 bc 58 df 24 bd ce e9 43 bd
       -0.060760573 -0.015241943 -0.04025206 -0.047830395
000130 32 32 18 bd 50 c1 a1 3c 30 2f 2a 3d a0 37 e7 3c
       -0.037157245 0.019745499 0.041548908 0.028224766
000140 00 5f af bc 14 da e1 3c 2c 25 7c 3d 40 4e 48 3b
       -0.021407604 0.027569808 0.061558887 0.0030564219
000150 04 3f b8 bc 54 25 4a bd 54 f7 34 3d b0 04 6a bc
       -0.022490986 -0.049352005 0.044181183 -0.014283344
000160 d4 d8 48 bd be 0a 14 3d e8 24 4c 3c d0 a6 ce bc
       -0.04903491 0.036143057 0.012459971 -0.025226027
000170 2c fc 7b bd 88 74 00 3c a8 a2 97 bc 90 91 31 bc
       -0.061519787 0.007840283 -0.018510178 -0.010837927
000180 80 cc aa bc 28 8f 52 3d 70 e2 07 3d cc f4 4a 3d
       -0.020849466 0.051406056 0.033174932 0.049549863
000190 58 4e c1 3c 68 1d 92 3c 58 a6 7c 3d 00 aa 68 b9
       0.023596928 0.017836288 0.061682075 -0.00022188574
0001a0 a2 2b 13 3d 5c 31 d0 3c 1c 01 75 bd 5c ea 2d 3d
       0.035930283 0.025414161 -0.05981551 0.04245983
0001b0 90 d5 c8 bb 9c dc 2c bd 52 85 2c 3d f4 56 4f bd
       -0.0061289743 -0.042202577 0.04211933 -0.050620034
0001c0 c4 10 f0 3c a2 94 52 bd b4 da 92 bc 4c 2d 70 bd
       0.02930487 -0.05141128 -0.017926551 -0.05863695
0001d0 0a 15 37 3d d0 2a 7d 3c 10 e5 50 3d d0 43 9c 3c
       0.0446978 0.015452102 0.0509997 0.019075304
0001e0 50 de fd bc c0 f9 19 3c 3c 3e 2d 3d d8 eb 45 bd
       -0.030989796 0.009397924 0.04229568 -0.04832062
0001f0 4e c7 2a bd 64 3b 82 bc 22 ef 1f bd a0 06 3a bc
       -0.041693978 -0.01589746 -0.039046414 -0.011354119
000200 98 6c 72 3d 60 59 0e 3d 54 8d 4f bd da 22 0a bd
       0.059185594 0.034753203 -0.05067189 -0.033724643
000210 c8 70 4d 3d b0 10 9d bb 30 96 d7 bc d8 32 48 3c
       0.050156385 -0.004793249 -0.026316732 0.012219153
000220 80 93 22 bc 6c 80 ac 3c 00 ea 96 3a 82 8f 11 3d
       -0.009922862 0.02105733 0.0011513829 0.03553725
000230 30 ec 0c 3d e4 c0 b3 3c c4 97 9e 3c 60 7b 83 bc
       0.034404933 0.021942563 0.019359477 -0.01605004
000240 f6 ee 6c bd 60 2b c5 bb 10 6e 42 bd 08 c8 4c bd
       -0.05784508 -0.0060171336 -0.047468245 -0.049995452
000250 b6 6b 61 bd d8 e3 7f bc a8 50 3d bd 50 22 2d 3c
       -0.05503436 -0.015618287 -0.046219498 0.010567263
000260 34 1a dd 3c 82 16 18 3d b2 16 77 bd 04 66 57 3d
       0.026990034 0.03713084 -0.06032438 0.052587524
000270 d8 57 98 3c e8 be 4f 3d 88 15 f8 3c 00 27 3a 3c
       0.018596575 0.05071917 0.030283704 0.011361837
000280 48 8b 44 bc 24 2c 56 3d de 9e 26 bd 7e af 47 3d
       -0.011996098 0.05228819 -0.04067885 0.048751347
000290 e0 49 5f 3d 98 3b 27 3c 10 92 db bc 52 cd 4e bd
       0.054513812 0.010207079 -0.026803046 -0.050488777
0002a0 80 22 61 bb 44 88 59 3d a0 57 3d 3b 00 e0 80 bc
       -0.003435284 0.05310847 0.002889134 -0.015731812
0002b0 74 a0 fe bc 80 09 99 3b 58 93 0d 3d 80 7d 47 3c
       -0.03108237 0.004670322 0.034564346 0.012175918
0002c0 d8 8f 30 3c 06 27 31 bd a8 c7 f7 3c 10 de d4 3b
       0.0107764825 -0.043250106 0.03024657 0.0064961985
0002d0 50 9d 7b bd 1e ef 54 3d c2 cd 22 3d 00 6e 00 3a
       -0.06142932 0.051985852 0.039747007 0.0004899204
0002e0 70 43 4a bc 2c ef 65 3d a4 25 7e 3d c0 e0 26 3c
       -0.01234518 0.056136295 0.062047616 0.0101854205
0002f0 1e a4 6d 3d d4 72 d8 3c c8 57 f4 3c 00 97 72 bb
       0.058017842 0.026421942 0.029827014 -0.0037016273
000300 00 98 95 bb 52 b8 23 3d b8 41 e0 bc 40 dc 36 bd
       -0.004565239 0.039970703 -0.027375087 -0.04464364
000310 42 d7 1f 3d 88 c5 75 bc d6 bd 34 3d c8 24 2a bc
       0.039023645 -0.015000708 0.044126354 -0.010384746
000320 94 f4 1b bd c0 9b 8a ba f0 1d ec bb c0 0a 6b 3c
       -0.038075045 -0.0010574982 -0.0072057173 0.014345825
000330 08 81 45 bd a8 bf 58 bd a0 d0 53 3b 28 10 67 3d
       -0.048218757 -0.052917153 0.0032320395 0.056411892
000340 0e d3 21 bd 76 c7 00 bd f0 75 c3 3b d0 b6 3f 3d
       -0.039507918 -0.03144022 0.005964987 0.046805203
000350 5e 30 44 3d b0 d0 55 bc 40 bb 56 bb c4 8d 49 bd
       0.04789769 -0.013050243 -0.0032765418 -0.049207464
000360 d2 07 7a 3d 12 88 1b 3d 74 e8 82 3c 10 b0 78 bd
       0.061042614 0.037971564 0.015979983 -0.06071478
000370 e6 b5 10 3d de 3d 10 bd 60 77 2a 3b 5c a9 f5 3c
       0.035329722 -0.03521525 0.0026011094 0.029987983
000380 a0 21 23 bb 10 ba f9 bc 90 ea 2c 3d bc 83 2d 3d
       -0.0024891868 -0.03048423 0.042215884 0.04236196
000390 e0 80 c7 3b fa fb 1f bd 84 9e 04 bd b2 f6 65 bd
       0.006088361 -0.039058663 -0.032377735 -0.05614347
0003a0 f0 03 09 bd 28 ab 64 bd 80 b7 b4 bb ce ce 35 bd
       -0.03345102 -0.05582729 -0.005515039 -0.044386677
0003b0 06 cb 11 3d 60 26 4f bd e2 7d 30 bd e4 be 1d bd
       0.03559401 -0.050573707 -0.0430888 -0.038512126
0003c0 78 86 86 bc e0 5d c8 3c 66 3e 38 3d 88 e8 7d 3d
       -0.016421542 0.024458826 0.044981383 0.061989337
0003d0 50 38 74 bc 20 68 70 3c 30 31 90 3b 9c 30 0d 3d
       -0.014906004 0.014673263 0.004400395 0.034470186
0003e0 44 9a f0 3c dc 84 16 3d 02 9e 2e 3d b8 1c 55 3d
       0.029370435 0.0367478 0.042631157 0.05202934
0003f0 80 41 51 3b 06 36 33 3d ae d8 0f bd a0 0c 57 bc
       0.003192991 0.043752693 -0.03511875 -0.013125569

conv3.bias f4 [32]
000000 c4 00 51 bd d8 6e 14 bd 38 2f 4d 3c 30 68 71 3d
       -0.05102612 -0.03623852 0.012523465 0.05893725
000010 cc 3f 31 3d c8 75 d0 bc a0 f7 6d 3c 44 2f 30 3d
       0.043273732 -0.025446787 0.01452437 0.043013826
000020 80 5d 55 3c ac 5b 51 bd 80 1a fb 3b 90 84 d0 3c
       0.01302278 -0.051112816 0.007663071 0.025453836
000030 c0 a5 27 3c 52 d4 69 3d 5c a3 55 3d 4a 0b 0f bd
       0.010232389 0.05708725 0.052157745 -0.034922875
000040 78 a2 42 3d e6 1c 65 bd 7a 55 11 bd d0 98 cf 3c
       0.047518224 -0.055935763 -0.035481907 0.025341421
000050 c0 94 f8 3a 42 14 5d 3d 96 50 18 3d 00 25 5a bc
       0.0018965229 0.053974397 0.037186228 -0.013314486
000060 2e cf 74 3d da b8 37 bd 20 d6 3e 3c 94 67 a3 3c
       0.059767894 -0.044854023 0.011647731 0.01994685
000070 3a 1e 48 3d ae 78 7a 3d a8 ab f9 3c 64 2c e4 bc
       0.04885695 0.061150245 0.03047736 -0.027853198

lin1.weight f4 [2, 320]
000000 b5 9b 98 3d f2 14 9e 3d af 27 1b 3d 1b cf 28 3d
       0.07451574 0.07718839 0.037879642 0.041213136
000010 48 12 b0 bc a3 16 54 bd d2 b9 19 bd 8b 46 20 bd
       -0.021493092 -0.0517794 -0.037530728 -0.039129775
000020 e3 c1 a1 bc 34 84 43 3d 1f 61 72 b9 27 00 1d bd
       -0.019745773 0.0477335 -0.00023115099 -0.038330223
000030 2c 40 27 bd 6f a7 97 3c 97 a6 b0 bc 5e 08 ce 3a
       -0.040832683 0.018512456 -0.021563811 0.0015719046
000040 46 bc 4a 3d da 62 29 3d 52 7e fd 3c e8 cc f2 3c
       0.049495958 0.041354038 0.030944023 0.029638723
000050 b7 ae dc bb 4e 91 97 bd 14 2b df ba 5a 8d 56 bd
       -0.006734695 -0.074007615 -0.0017026388 -0.052380897
000060 71 c1 ed 3a 6b 34 08 3d eb 75 cb 3d 32 c9 90 3d
       0.0018139315 0.033253115 0.099346004 0.07069625
000070 b3 b7 c7 3c f8 78 f6 bc 04 f7 b7 bd fa 68 bf bd
       0.024379587 -0.03008698 -0.08982661 -0.093461946
000080 05 98 e2 bc c9 ef 75 bc 88 ed 69 3d d6 3e d0 3c
       -0.02766038 -0.0150107825 0.057111293 0.025420588
000090 94 79 ca 3d ad 09 28 3c 5d cf 66 3c 60 26 16 bd
       0.098864704 0.010256213 0.014087525 -0.03665769
0000a0 0a 78 4d 3c 91 de 9a 3d 81 97 5d 3d 7d 08 93 bc
       0.012540827 0.075619824 0.054099564 -0.017948383
0000b0 86 81 62 bd 4b ce 91 bc c0 c8 87 bd 75 0a 21 bd
       -0.055299304 -0.017798563 -0.06630087 -0.039316613
0000c0 ab c9 8f 3c 26 9b 87 3d 39 87 8c 3b e4 8b a0 3d
       0.017552217 0.06621389 0.0042885807 0.07839182
0000d0 ef 38 48 3d eb 3e 1f 3d 65 03 83 bc 6a 59 6b 3c
       0.04888242 0.038878363 -0.01599283 0.01436458
0000e0 cf 0e dd bc 81 fe 72 3c 89 29 7f 3c 1a 19 33 3d
       -0.0269846 0.014831186 0.015573868 0.04372511
0000f0 82 69 5e 3b c3 1d 40 3d 40 c4 54 3d a9 f9 a2 3c
       0.00339374 0.046903383 0.05194497 0.019894438
000100 dc 34 24 3b bd 2c 12 bd 0f c0 10 bd 14 98 ae 3c
       0.002505592 -0.035687197 -0.03533941 0.02131275
000110 98 28 3c bd 6a 0a 21 bd 9e 91 e9 3c ff bc e8 bc
       -0.04593715 -0.039316572 0.028511818 -0.028410433
000120 21 1c 31 bd 04 8c 4b 3c 1a a5 c5 3c 39 8f 4f bd
       -0.043239716 0.012423519 0.024126578 -0.050673697
000130 1d 30 ea 3b a8 93 30 bd cf 35 c1 3c 88 85 fa 3c
       0.007146849 -0.043109566 0.023585228 0.03058125
000140 2c 41 3f 3d 28 30 9a 3d e1 f7 9c 3c 0a 43 5f bc
       0.046693012 0.07528716 0.019161167 -0.013626823
000150 c6 a5 95 bc 39 80 06 bd 4d 66 8e bd 0a 4d 89 bd
       -0.018267523 -0.032837126 -0.06953106 -0.06704147
000160 b3 d9 72 bc ed 33 6b 3d 39 10 2b 3d 1b ae 10 bc
       -0.014822411 0.057422567 0.041763518 -0.0088305725
000170 54 cd 5d 3d ed c8 15 bd 2a 9d 86 bb c1 8a 8f 3c
       0.054150894 -0.03656857 -0.004108091 0.017522218
000180 e9 9f 02 bd 8a f5 70 3d 90 9d 2c bc d4 b9 5e 3d
       -0.031890783 0.058827914 -0.010535613 0.05437644
000190 7a 59 b9 3c 5e ad 60 bc fd 58 8d 3d a3 f8 2f 3c
       0.022625674 -0.013713209 0.06901739 0.010740432
0001a0 f7 7f d4 3c f9 f8 87 3d 06 56 24 bd 5e 62 6b 3d
       0.025939925 0.06639285 -0.0401211 0.057466857
0001b0 ec 88 5e bc 7d 57 e5 bc 8f b5 fe 3c 5c 1e 8c bc
       -0.013582449 -0.02799582 0.031092433 -0.01710432
0001c0 bc bf 36 bd f4 84 e0 bc d4 02 14 3d ab ac c8 3c
       -0.044616446 -0.027407147 0.03613551 0.024496397
0001d0 cf e1 33 bb 16 2e eb 3c dd ee 35 3c 0c 71 2b bd
       -0.0027447825 0.028708499 0.011104313 -0.041855857
0001e0 83 94 2b 3c 4c f5 21 3d c6 cb b3 bb 78 74 d9 bb
       0.01047242 0.039540574 -0.005486938 -0.0066361986
0001f0 b9 ee 61 3d 2d e5 80 bc 42 85 56 3d d6 7f 49 3d
       0.055159304 -0.01573428 0.05237318 0.04919418
000200 09 34 3a 3d da fa 6e 3c a4 25 b4 3c 5c d3 24 3c
       0.04545978 0.014586175 0.021990605 0.010060158
000210 46 2e 5c bd 76 f5 0d bd ee bf 34 bd dd 84 85 bc
       -0.053755067 -0.034657918 -0.04412835 -0.016298706
000220 21 ba ff bc 09 a1 e5 bc 5d 58 4d bd d6 ea 44 bd
       -0.031216683 -0.02803089 -0.050133098 -0.04807552
000230 16 c9 3f 3d 18 80 90 3d d0 58 cd 3b 2e 02 f9 bc
       0.04682263 0.07055682 0.006266691 -0.030396547
000240 e8 23 3d bd ca 2c 80 bd e9 97 b9 bd b0 2b a0 3b
       -0.04617682 -0.06258543 -0.09062178 0.0048880205
000250 49 18 0b 3d fa 2e 99 3d 16 a9 ec bc 23 67 17 bd
       0.033958707 0.07479663 -0.02888922 -0.036963593
000260 05 7b 5b 3d d6 85 0a bd ff 61 40 bd 0a bb 3e bd
       0.053584117 -0.033819042 -0.046968456 -0.046565093
000270 10 63 8b 3c 2b 75 f4 bb c5 b3 0b bd a1 f9 42 3d
       0.01701501 -0.0074602566 -0.03410699 0.047601346
000280 ac 5d 5e bd 1c 18 b1 bc 2b d6 2e 3c 45 af 1b 3d
       -0.05428855 -0.021617942 0.010671179 0.038008947
000290 68 e5 9b 3d 00 04 32 3d 6e 72 84 3d 30 d3 9f 3c
       0.07612115 0.043460846 0.06467138 0.019509882
0002a0 c1 39 9c bc da 5a a8 bd 2e a5 88 3d c8 6d 4e 3d
       -0.019070508 -0.082204536 0.066721305 0.050397664
0002b0 84 43 16 3d 93 29 45 bb 19 47 3f bc 39 81 c6 bd
       0.03668548 -0.0030084595 -0.011674666 -0.09692616
0002c0 f7 2c c6 bb 7b 57 10 3c 77 27 d4 3c 84 49 13 3d
       -0.0060478407 0.0088099195 0.025897725 0.03595878
0002d0 9a ad 4c bd 8e 18 5a bc 05 d8 2e bd 86 15 d4 bc
       -0.049970247 -0.013311518 -0.04268648 -0.02588917
0002e0 ae 7d 35 3d a4 ab cd bb 22 73 63 3d 62 02 e4 bc
       0.04430931 -0.0062765647 0.05552972 -0.027833167
0002f0 f8 22 ce bc 95 e6 32 bd 3e 62 e7 3c 73 dc 5b 3d
       -0.025163159 -0.04367693 0.028245088 0.053677034
000300 d6 dc 81 3d 45 0c 8f 3d 6c 4f 1e 3d 6b d1 64 bd
       0.06340949 0.06984762 0.03864996 -0.05586378
000310 4e 7c b7 bc 35 94 a4 3c 42 03 b6 3c ae a2 01 3d
       -0.02239814 0.020090202 0.02221835 0.031649284
000320 2b be 85 bd 0d b5 ab bd d2 79 18 bb 41 1a e8 bc
       -0.06530412 -0.08384142 -0.002326597 -0.028332831
000330 14 e3 3c 3d dc cc 32 3d d3 52 35 3d 9c 84 78 3d
       0.046114996 0.0436524 0.04426844 0.06067334
000340 f7 6c 1d 3d 7b 7e 88 bd 74 07 6a 3d 0e e7 6b 3d
       0.038433995 -0.06664749 0.057136014 0.057593398
000350 86 8b b5 3c 88 aa ef 3a 29 5d a7 bc 61 8c d2 bb
       0.022161257 0.0018285075 -0.020430164 -0.006425426
000360 07 ab 8e bd 41 b2 f7 ba 5c 4d 9f 3b 6d 39 88 3d
       -0.069662146 -0.0018897728 0.004861517 0.06651578
000370 3e 03 90 bd 44 09 e6 3c 79 80 86 3d 55 5b 65 3d
       -0.070318684 0.02808059 0.06567473 0.055995304
000380 c4 9d 63 3d 6c ca 7f 3d cd fc 35 ba 29 25 15 bd
       0.05557038 0.062448904 -0.00069422723 -0.03641239
000390 9c ce c9 39 20 dc a4 bd 71 cf 95 3c 99 30 af bc
       0.00038491643 -0.08049798 0.018287392 -0.021385478
0003a0 cc 10 5e bd 2e 02 2c bd 76 c5 e9 bc 14 34 89 bd
       -0.054215237 -0.041994266 -0.02853654 -0.06699386
0003b0 16 e4 7b bd b8 6c 4d bd 92 b8 9f 3b 04 15 84 3c
       -0.061496817 -0.05015251 0.0048742974 0.016123302
0003c0 87 40 fd bb 15 1c a5 bd f2 ee 91 bd bc 91 cf bc
       -0.0077286395 -0.08061997 -0.07125653 -0.025338046
0003d0 ec 1c 83 3d d1 1b b0 3d 99 d7 46 3d ee b9 ff 3c
       0.06402001 0.085990556 0.048545454 0.031216588
0003e0 a6 14 44 3c 50 3c 44 bd f0 9b 15 bd b4 63 a4 bd
       0.011967814 -0.04790908 -0.036525667 -0.08026829
0003f0 67 ef 75 bd 46 22 09 bd 37 91 b5 3c e7 1c 53 3c
       -0.060042765 -0.03347995 0.02216397 0.012885309

lin1.bias f4 [2]
000000 4c 07 fd bc af 6b 94 bc
       -0.030887268 -0.018117754
