src/deep_ant/Models/model_swat.pt (torch, 189101 bytes, 8 tensors)

conv1.weight f4 [128, 52, 2]
0.0813258 0.083794214 -0.020426992 0.07499726 -0.053298965 -0.008966861 -0.03251447 0.045593217
0.09128401 -0.07062094 0.06274284 0.010649036 0.06895149 0.010091312 0.058355343 -0.029877862
0.06731809 0.032488927 -0.057406716 0.03808498 -0.06269918 0.007429415 -0.034438387 0.060172293
-0.071497865 -0.047434766 -0.030718941 -0.06852114 0.013976045 -0.105403304 0.09454354 -0.077138476
0.077842414 0.01874317 -0.04358203 0.028923409 0.0066725705 0.094508916 0.009422934 -0.026074048
0.042230994 -0.049243774 0.030124966 0.0837677 0.058871545 -0.031440936 0.072227344 0.009234902
0.058126226 -0.07135352 -0.10407326 -0.055724006 -0.06889547 0.08665911 0.032086477 0.046106927
0.015104031 -0.0050042076 0.08147202 -0.06492355 0.013117059 -0.060261816 0.02084655 -0.031873506
0.044343498 -0.03209509 0.07617777 -0.06732308 -0.04130483 -0.05904098 0.07043668 0.048332985
0.08452752 -0.092042185 -0.09462619 -0.07469507 -0.08152485 0.055775512 0.0061979643 0.09043512
-0.06260734 -0.07387095 0.052536156 -0.03354678 0.051892605 -0.018130606 0.05242434 -0.09197459
-0.06479592 0.034789823 0.037388686 -0.01844799 0.07189554 0.05667655 -0.049839158 -0.037677117
0.08422281 -0.038205992 -0.037199877 -0.07775685 -0.06582481 0.005261471 -0.021733424 -0.08139841
0.0025816371 -0.046725474 -0.09135664 -0.047148056 -0.072737485 -0.047656264 0.10082868 0.027119042
0.027819121 -0.09033925 -0.07992166 -0.025211573 0.012919588 -0.08388345 -0.05031017 -0.048743274
0.0036636346 -0.026919035 -0.012775375 -0.13486205 -0.06414755 -0.0568832 -0.032569867 -0.073578015
0.089540794 -0.019946843 0.083009675 0.02539114 -0.07136036 0.060871653 -0.027358118 -0.037444293
-0.052738193 -0.10536857 0.03977365 -0.008359496 0.02865998 -0.077594236 0.08380139 -0.07439214
-0.011855931 0.004924831 0.0548439 0.07665858 0.10258234 -0.08577802 0.022650434 -0.03886995
-0.0043781092 -0.079381175 0.08993087 -0.06885674 0.049838945 0.03642288 0.027274936 -0.04553611
0.11554037 0.020363044 0.0038918124 -0.07489928 0.02291015 -0.015084958 -0.05391945 0.11371171
0.0065827756 -0.04251787 -0.052362476 -0.014862377 0.0635881 -0.01427685 -0.06225638 -0.027927684
-0.08631122 0.03884925 0.095992215 -0.07963132 0.030071842 0.048673745 0.032711796 -0.027864488
0.06261173 0.051778153 0.037918754 -0.019783624 -0.018834503 0.005187441 -0.015270138 -0.0028426438
0.07270463 0.075534604 -0.0013990324 -0.04018041 -0.06390312 -0.015064341 0.02374169 0.012119403
-0.08534856 -0.039627414 0.08148252 0.047486976 -0.01051149 -0.06563385 -0.06808953 -0.10205891
-0.03084057 0.031717822 0.081953615 0.05619898 -0.077420376 -0.050550036 -0.011083942 0.09817259
0.0037241539 -0.010289701 0.056466524 -0.047976308 -0.029219339 0.07912175 -0.03770768 -0.027817473
-0.10061206 0.06861687 0.086842015 0.053113233 -0.045384403 -0.09740123 -0.082461 0.07608396
0.021547604 0.09560889 0.059637714 0.02542515 -0.004258266 -0.05812418 -0.08069258 -0.090650044
0.059072062 -0.028636042 -0.010921049 -0.047545068 -0.024087248 -0.06459217 -0.051465012 0.021865781
-0.02677203 0.07615163 -0.037453018 -0.037667874 -0.012654795 -0.04054383 -0.030408636 -0.09646661
00000000: 248e a63d 4d9c ab3d 8256 a7bc 2a98 993d
00000010: 0450 5abd bee9 12bc e52d 05bd f4bf 3a3d
00000020: 1cf3 ba3d b6a1 90bd 517f 803d 4b79 2e3c
00000030: 7036 8d3d 0856 253c 0306 6f3d 6bc2 f4bc
00000040: 11de 893d 1c13 053d 4e23 6bbd fffe 1b3d
00000050: 6d68 80bd 7372 f33b 440f 0dbd 3977 763d
00000060: 796d 92bd f54a 42bd 4aa6 fbbc d054 8cbd
00000070: c8fb 643c b0dd d7bd 0ba0 c13d c7fa 9dbd
00000080: d86b 9f3d 478b 993c 1283 32bd c9f0 ec3c
00000090: 94a5 da3b e48d c13d a662 1a3c 3e99 d5bc
000000a0: 68fa 2c3d d7b3 49bd a2c8 f63c 668e ab3d
000000b0: 4a23 713d 36c8 00bd eeeb 933d fd4d 173c
000000c0: c415 6e3d cb21 92bd 5d24 d5bd db3e 64bd
000000d0: 1119 8dbd 557a b13d 1c6d 033d 9eda 3c3d
000000e0: e676 773c 56fa a3bb cdda a63d a3f6 84bd
000000f0: efe8 563c 18d5 76bd 62c6 aa3c cb8d 02bd
00000100: 87a1 353d 2476 03bd 1703 9c3d afe0 89bd
00000110: 412f 29bd f4d4 71bd 1b41 903d cff8 453d
00000120: c41c ad3d 9d80 bcbd 60cb c1bd bbf9 98bd
00000130: 80f6 a6bd dd74 643d 4b18 cb3b 0c36 b93d
00000140: 4738 80bd a749 97bd 2730 573d 5968 09bd
00000150: 578d 543d a386 94bc e8ba 563d 2d5d bcbd
00000160: b9b3 84bd c67f 0e3d e124 193d 3d20 97bc
00000170: f83d 933d ac25 683d 2524 4cbd 5253 1abd
00000180: 027d ac3d e37d 1cbd e65e 18bd fc3e 9fbd
00000190: 28cf 86bd 6b68 ac3b 4b0a b2bc 36b4 a6bd
000001a0: af30 293b 3663 3fbd 3119 bbbd 521e 41bd
000001b0: 64f7 94bd 3733 43bd 447f ce3d c128 de3c
000001c0: ede4 e33c c903 b9bd f8ad a3bd 8088 cebc
000001d0: aeac 533c 16cb abbd 0912 4ebd 07a7 47bd
000001e0: 9719 703b 4f85 dcbc ce4f 51bc 4719 0abe
000001f0: ca5f 83bd 5cfe 68bd fb67 05bd 12b0 96bd
00000200: 2a61 b73d 9067 a3bc fa00 aa3d 1401 d03c
00000210: 6125 92bd 8e54 793d 221e e0bc 305f 19bd
00000220: 0104 58bd 7acb d7bd b2e9 223d 44f6 08bc
00000230: 56c8 ea3c bae9 9ebd 10a0 ab3d e85a 98bd
00000240: 613f 42bc 7a60 a13b ffa3 603d 2cff 9c3d
00000250: b116 d23d 63ac afbd 678d b93c 1936 1fbd
00000260: 3e76 8fbb 9992 a2bd ad2d b83d c304 8dbd
00000270: ec23 4c3d 2830 153d b06f df3c 1284 3abd
00000280: 6ea0 ec3d 66d0 a63c c70d 7f3b cb64 99bd
00000290: 11ae bb3c e626 77bc a4da 5cbd afe1 e83d
000002a0: 53b4 d73b 3827 2ebd 097a 56bd 5481 73bc
000002b0: 7a3a 823d 73e9 69bc 8c00 7fbd 99c8 e4bc
000002c0: f0c3 b0bd 6420 1f3d 9197 c43d bf15 a3bd
000002d0: 3959 f63c 1f5e 473d cefc 053d 1144 e4bc
000002e0: 943a 803d 5415 543d b250 1b3d 4411 a2bc
000002f0: d14a 9abc 69fb a93b 9a2f 7abc a64b 3abb
00000300: 2ae6 943d e3b1 9a3d bd5f b7ba 3794 24bd
00000310: a4df 82bd 6dd0 76bc ef7d c23c 7690 463c
00000320: 3acb aebd 5b50 22bd 4fe0 a63d b481 423d
00000330: 6238 2cbc 0a6b 86bd 8672 8bbd 4304 d1bd
00000340: 5da5 fcbc 8cea 013d 4cd7 a73d e730 663d
00000350: 938e 9ebd 8e0d 4fbd 6c99 35bc b60e c93d
00000360: ef10 743b 2296 28bc 7149 673d ce82 44bd
00000370: 655d efbc 960a a23d 5e73 1abd 78e1 e3bc
00000380: b20d cebd 0087 8c3d 3ada b13d 438d 593d
00000390: ffe4 39bd 4c7a c7bd 50e1 a8bd e8d1 9b3d
000003a0: 9a84 b03c 98ce c33d ad46 743d 6748 d03c
000003b0: ed88 8bbb 9f13 6ebd 2742 a5bd bba6 b9bd
000003c0: 8cf5 713d 2296 eabc 33ee 32bc 9ebe 42bd
000003d0: 9f52 c5bc e648 84bd facc 52bd de1f b33c
000003e0: 0451 dbbc 63f5 9b3d 5668 19bd a149 1abd
000003f0: 0f56 4fbc 4911 26bd 881b f9bc 4990 c5bd

conv1.bias f4 [128]
-0.040223368 -0.026376516 -0.07867631 0.05803484 0.011106484 0.05047825 0.06384564 -0.042624854
0.00036534737 0.08422433 -0.06138873 0.076542825 0.05361402 -0.034214206 -0.0751951 0.0451272
0.03831419 -0.042620342 0.05220021 0.024580598 0.09614275 0.053202324 0.008732012 -0.114001945
0.06605808 0.0841875 -0.034640335 0.010987751 0.0043281903 -0.004491999 0.054428507 0.0027128772
-0.08773134 0.028732771 -0.07331782 0.016875122 0.049355347 -0.04937211 0.061424635 0.0062544877
-0.04676273 0.094456755 0.06469627 0.07384456 -0.07878952 -0.086633205 -0.09260858 0.05500943
0.0635813 -0.052641254 0.019085009 0.023308888 -0.039235123 0.0006468773 -0.05943683 -0.030164458
0.033896547 0.015481452 -0.08141455 0.02433402 -0.028024355 -0.069227934 -0.09557605 -0.018904699
-0.07257422 -0.06734156 0.032421336 0.012808047 -0.044126462 0.03530092 0.05272103 -0.025667412
-0.031725362 0.017339183 0.024195991 0.03577104 0.05074596 -0.0059624407 0.036649268 -0.053380944
-0.01743345 0.06357571 -0.085107855 -0.07658597 -0.09174557 0.07259419 -0.009615123 0.08509676
-0.046622466 -0.025637764 0.06861027 -0.09192391 -0.11287458 -0.07177207 0.010623249 -0.0873546
0.027919566 0.08443148 -0.008487242 -0.009884656 -0.085036054 -0.008331697 0.009897895 0.018900083
-0.03866973 -0.0749643 -0.048087742 0.078264676 -0.050915726 0.0026315558 -0.02781168 -0.052458286
-0.002357808 0.083185695 0.06905516 -0.025404386 -0.012020566 -0.05294352 -0.050545767 -0.03240521
0.08369308 0.017134137 -0.06803581 -0.027396232 -0.09015307 0.0881647 0.008550364 -0.018532109
00000000: 42c1 24bd 9013 d8bc 0c21 a1bd f1b5 6d3d
00000010: f8f7 353c 48c2 4e3d 81c1 823d 6697 2ebd
00000020: 188c bf39 ce7d ac3d c072 7bbd 7cc2 9c3d
00000030: 609a 5b3d 3224 0cbd e3ff 99bd 4dd7 383d
00000040: 57ef 1c3d ab92 2ebd e3cf 553d 405d c93c
00000050: 7de6 c43d aeea 593d b610 0f3c da79 e9bd
00000060: 7549 873d 7f6a ac3d 06e3 0dbd f805 343c
00000070: 7ed3 8d3b 9e31 93bb 6df0 5e3d 87ca 313b
00000080: 7dac b3bd fd60 eb3c a727 96bd b23d 8a3c
00000090: d528 4a3d 693a 4abd 6698 7b3d 72f2 cc3b
000000a0: 478a 3fbd 8b72 c13d 7a7f 843d d13b 973d
000000b0: 665c a1bd c06c b1bd 91a9 bdbd 9151 613d
000000c0: ea36 823d 5b9e 57bd 2a58 9c3c 48f2 be3c
000000d0: 02b5 20bd 3393 293a 0974 73bd 741b f7bc
000000e0: 1bd7 0a3d eba5 7d3c acbc a6bd 2458 c73c
000000f0: 5593 e5bc 60c7 8dbd 60bd c3bd 07de 9abc
00000100: cba1 94bd 5fea 89bd 3ccc 043d d8d8 513c
00000110: f3bd 34bd b397 103d 02f2 573d 7744 d2bc
00000120: 74f2 01bd e70a 8e3c ac36 c63c a784 123d
00000130: ffda 4f3d 9460 c3bb 8b1d 163d faa5 5abd
00000140: 98d0 8ebc fb33 823d 074d aebd 1bd9 9cbd
00000150: 1ae5 bbbd 43ac 943d c088 1dbc 3647 ae3d
00000160: 33f7 3ebd 4a06 d2bc 8b83 8c3d 9a42 bcbd
00000170: ca2a e7bd 3cfd 92bd 230d 2e3c f8e6 b2bd
00000180: 93b7 e43c 69ea ac3d 130e 0bbc 41f3 21bc
00000190: 6227 aebd ac81 08bc c82a 223c 59d4 9a3c
000001a0: 2764 1ebd e286 99bd a7f7 44bd 3b49 a03d
000001b0: 028d 50bd 2e76 2c3b 52d5 e3bc 80de 56bd
000001c0: 7485 1abb 435d aa3d cb6c 8d3d dc1c d0bc
000001d0: e8f1 44bc 4edb 58bd 1409 4fbd 53bb 04bd
000001e0: 4767 ab3d e45c 8c3c 5c56 8bbd 106e e0bc
000001f0: 2ca2 b8bd b28f b43d d316 0c3c a6d0 97bc

conv2.weight f4 [32, 128, 2]
0.02080964 -0.04643651 -0.017772555 0.0017021254 0.043185163 0.061166644 -0.0011436421 -0.059489585
0.016924445 -0.03189463 0.06542771 -0.021385847 -0.020952117 -0.010060995 0.058317743 0.019066062
-0.03827628 0.0031163152 0.018410264 -0.026612397 0.026369756 -0.05224293 -0.027648177 0.04360472
0.06278842 0.017317446 -0.025298283 0.029646711 -0.03346063 -0.047683172 -0.042187013 -0.0055031097
0.0025682056 0.011709371 0.055978738 -0.0050996086 0.06583837 -0.036504425 -0.030781768 0.025724921
0.043644734 0.024520272 0.057311222 -0.03883605 0.06420867 0.030154837 0.014125068 0.00044956108
-0.0477178 0.038453862 0.024685467 0.04426771 0.050397795 -0.05562711 0.066887334 -0.014709791
-0.035867915 0.048773333 -0.008739801 0.005770326 0.010016277 -0.029890353 0.027924912 0.051740207
0.06131264 -0.014567766 -0.06528417 0.0088549275 -0.0035311193 0.0038142258 -0.060599934 0.04507925
-0.030251225 -0.0029096082 -0.003993995 -0.026817577 0.03431327 -0.044163 -0.0044156294 -0.047612585
0.045995954 -0.04973385 0.05223475 -0.055671234 -0.05580645 -0.0077579515 -0.07392254 0.06370927
0.06370447 -0.027321812 0.05641934 -0.020364728 0.0064277765 -0.03912734 -0.010052264 -0.01597329
0.011070801 0.018064283 -0.059771203 0.0042504347 0.05428455 0.05830994 0.013255517 0.010399103
0.04651269 0.034497783 -0.03682664 0.0050358027 -0.044053793 0.011699431 0.0077933697 -0.043425757
0.00781608 0.047833126 -0.06263916 -0.05051866 -0.017804135 0.021176888 -0.057926986 -0.012310971
0.04491215 -0.05488434 -0.020987207 -0.0149618 0.043203484 -0.028106306 0.05117922 -0.023739792
0.025158899 -0.01763203 0.06469639 -0.028979825 -0.020303903 0.06997837 -0.04513492 0.02114997
0.010694308 0.0059323893 0.06620505 -0.06032979 -0.0030365 -0.03210608 0.029456355 0.067583494
-0.063610554 -0.020768175 -0.051189594 -0.045072522 0.016382402 -0.011112218 -0.051476184 -0.04367619
-0.046172027 0.00023045151 -0.039554883 -0.045076236 -0.047099646 0.05534436 0.054760437 -0.027910858
0.015174674 0.00041929816 -0.0116609335 0.038250484 -0.034691006 -0.001816515 0.058599655 -0.093097776
0.048139 0.033109352 0.032933254 -0.0042300667 -0.03629416 -0.041408084 -0.02946931 -0.06795689
-0.0036870707 0.018503089 -0.065324284 0.053192187 -0.05117395 -0.0033229764 -0.013187295 0.061402176
-0.018805012 0.0043667145 0.02271577 0.020684188 -0.044907436 -0.035308324 -0.015909076 -0.06450875
-0.025926083 -0.080495514 0.021708779 0.002696935 -0.044441015 0.07470393 0.0081433635 -0.053630054
-0.003632585 0.058657926 -0.02491205 0.008649534 0.019175667 -0.034793515 -0.040037915 0.006646799
-0.051843967 0.056731936 0.015627593 -0.016813658 -0.0017274033 0.004495421 0.023292601 0.046729036
-0.06862548 -0.041348625 0.02284962 -0.03046123 0.0034190237 -0.02336552 0.03460434 -0.027723081
0.06874095 0.041480843 -0.050728202 0.0026206672 -0.0071460907 -0.06981471 -0.050265253 0.057044923
0.034731995 -0.040755928 0.0056184586 0.005723413 0.045817845 0.027191857 0.036221612 0.05396937
-0.035702005 -0.016755955 0.021849781 -0.05034754 -0.058902428 0.03037656 0.04107581 0.037065033
0.033310246 0.024974318 -0.002377881 -0.011914226 0.009687152 -0.029255575 0.059785716 0.041995056
00000000: fa78 aa3c 3634 3ebd c097 91bc da19 df3a
00000010: ede2 303d e089 7a3d 43e6 95ba 5aab 73bd
00000020: 22a5 8a3c f2a3 02bd f7fe 853d 5f31 afbc
00000030: c6a3 abbc dfd6 24bc 96de 6e3d 6e30 9c3c
00000040: 97c7 1cbd 183b 4c3b 1fd1 963c 3e02 dabc
00000050: 6305 d83c affc 55bd 6e7e e2bc dd9a 323d
00000060: 3797 803d 51dd 8d3c 583e cfbc a9dd f23c
00000070: 030e 09bd 6e4f 43bd 4acc 2cbd 6e53 b4bb
00000080: 574f 283b a9d8 3f3c f649 653d 9e1a a7bb
00000090: 44d6 863d aa85 15bd 0c2a fcbc 12bd d23c
000000a0: d2c4 323d bdde c83c 2cbf 6a3d 8d12 1fbd
000000b0: d67f 833d 4707 f73c d46c 673c 11b3 eb39
000000c0: bd73 43bd cc81 1d3d 2d39 ca3c 0f52 353d
000000d0: eb6d 4e3d 41d9 63bd 3afc 883d 5601 71bc
000000e0: 3cea 12bd 8cc6 473d 6231 0fbc 0115 bd3b
000000f0: 501b 243c 9ddc f4bc c9c2 e43c 8aed 533d
00000100: f622 7b3d a4ad 6ebc b5b3 85bd 4214 113c
00000110: 5a6a 67bb 17f8 793b a337 78bd 05a5 383d
00000120: 6bd1 f7bc 20af 3ebb 0fe0 82bb 89b0 dbbc
00000130: 128c 0c3d 43e4 34bd fcb0 90bb 6a05 43bd
00000140: 4166 3c3d b9b5 4bbd 1bf4 553d 8507 64bd
00000150: 4e95 64bd 6a36 febb b364 97bd 017a 823d
00000160: 7d77 823d fed1 dfbc f717 673d eed3 a6bc
00000170: 19a0 d23b fd43 20bd 40b2 24bc 6bda 82bc
00000180: 4e62 353c 8cfb 933c a6d2 74bd 3b47 8b3b
00000190: 7a59 5e3d 67d6 6e3d ab2d 593c 0061 2a3c
000001a0: 1784 3e3d 8c4d 0d3d 88d7 16bd 6003 a53b
000001b0: c071 34bd f8ae 3f3c 865f ff3b 35df 31bd
000001c0: 040f 003c abec 433d f648 80bd a8ec 4ebd
000001d0: fad9 91bc 277b ad3c d944 6dbd f4b3 49bc
000001e0: cdf5 373d 67ce 60bd 5ded abbc 5622 75bc
000001f0: 23f6 303d 323f e6bc 4da1 513d f479 c2bc
00000200: 091a ce3c 0c71 90bc 8a7f 843d 1967 edbc
00000210: 5f54 a6bc d250 8f3d 65df 38bd b442 ad3c
00000220: 2e37 2f3c 7d64 c23b 8396 873d 5f1c 77bd
00000230: 0400 47bb aa81 03bd 744e f13c 3769 8a3d
00000240: 4046 82bd 0522 aabc 2eac 51bd f79d 38bd
00000250: 6334 863c 0510 36bc b1d8 52bd cee5 32bd
00000260: e11e 3dbd 5ba5 7139 4d04 22bd dca1 38bd
00000270: 8feb 40bd c5b0 623d 7b4c 603d 50a5 e4bc
00000280: 329f 783c 3fd5 db39 800d 3fbc 8aac 1c3d
00000290: 2818 0ebd 2118 eeba 3106 703d 0caa bebd
000002a0: 662d 453d ac9d 073d 05e5 063d 5f9c 8abb
000002b0: 2fa9 14bd 869b 29bd 9f69 f1bc fb2c 8bbd
000002c0: c8a2 71bb ca93 973c bdc8 85bd 0de0 593d
000002d0: c79b 51bd 4bc6 59bb 860f 58bc d980 7b3d
000002e0: f80c 9abc a816 8f3b 6c16 ba3c e371 a93c
000002f0: dcf0 37bd 769f 10bd c053 82bc 2a1d 84bd
00000300: f062 d4bc d5da a4bd 9cd6 b13c 10bf 303b
00000310: c807 36bd 60fe 983d be6b 053c 30ab 5bbd
00000320: aa10 6ebb 4b43 703d 5b14 ccbc c6b6 0d3c
00000330: 4a16 9d3c a583 0ebd ccfe 23bd 64cd d93b
00000340: 575a 54bd bf5f 683d 7005 803c ccbc 89bc
00000350: 096a e2ba 534e 933b 20d0 be3c f266 3f3d
00000360: 848b 8cbd 2d5d 29bd 202f bb3c d489 f9bc
00000370: b311 603b 0c69 bfbc 48bd 0d3d 841b e3bc
00000380: 0ec8 8c3d d1e7 293d 60c8 4fbd 80bf 2b3b
00000390: c129 eabb 04fb 8ebd f0e2 4dbd f0a7 693d
000003a0: 2343 0e3d b0ef 26bd 0c1b b83b 788b bb3b
000003b0: 7eab 3b3d 75c1 de3c 1d5d 143d fc0e 5d3d
000003c0: 443c 12bd c943 89bc 50fe b23c 3939 4ebd
000003d0: ac43 71bd 43d8 f83c 1c3f 283d 81d1 173d
000003e0: 5370 083d f196 cc3c 39d6 1bbb e333 43bc
000003f0: dcb6 1e3c 63a9 efbc dee1 743d 0203 2c3d

conv2.bias f4 [32]
0.03200432 0.051239382 -0.028474825 0.055364672 0.026817113 0.04234668 -0.05302138 0.016241731
-0.0048553566 0.0022433081 -0.053761244 0.0017827642 -0.018910883 -0.022652073 0.051464062 -0.056270573
0.006867458 0.03822776 0.010033025 0.04302615 0.009544751 0.044795062 0.032199446 -0.029209735
-0.047803666 -0.03138277 -0.036801156 -0.048280478 0.009035301 -0.04408726 -0.03742151 -0.027302483
00000000: f616 033d 63e0 513d 0944 e9bc 11c6 623d
00000010: 90af db3c b673 2d3d f22c 59bd 610d 853c
00000020: af19 9fbb 7704 133b c034 5cbd a4ab e93a
00000030: ffea 9abc d790 b9bc fbcb 523d f97b 66bd
00000040: 6a08 e13b b694 1c3d 8f61 243c 303c 303d
00000050: 9661 1c3c 077b 373d 91e3 033d 4149 efbc
00000060: c7cd 43bd 388b 00bd cfbc 16bd c0c1 45bd
00000070: cd08 143c d894 34bd 4c47 19bd 75a9 dfbc

conv3.weight f4 [32, 128, 2]
-0.058940873 -0.03916332 -0.013794988 0.0039557293 0.02661834 0.0555154 -0.012402438 -0.036992967
-0.038988248 -0.045232728 0.04029379 0.055218734 0.015622765 0.01536189 0.020388983 0.04212051
0.03494192 0.041598134 0.021279335 0.007849447 -0.016398482 0.038812518 0.01795663 0.03873971
0.059518553 0.046769775 0.05756297 0.047077768 -0.015214875 -0.023512796 0.01345671 0.038991816
-0.052029602 0.018808708 0.028608419 -0.030004278 -0.03148233 -0.02870801 0.061365426 -0.0030096993
-0.03503129 0.030635431 -0.042581744 -0.06003377 0.041387074 -8.374453e-06 0.0050483495 0.035909683
-0.008185506 -0.0054331645 -0.01070524 0.032844804 -0.012359038 0.0040990263 -0.04199267 -0.027334057
-0.052302115 0.0432915 0.052425504 0.025056444 0.023170173 -0.029129572 0.02053845 0.025815554
0.0584447 -0.050937667 -0.03765112 -0.031309478 0.05041875 -0.0007370636 0.04962477 -0.023193605
-0.009223364 0.009609632 -0.01663912 0.047830947 0.044449277 -0.049976222 -0.028158553 0.04105757
0.039550424 0.0010004491 0.050764643 0.0062787607 -0.060405664 -0.020732373 0.044020325 -0.013695702
-0.046286926 -0.014231831 -0.037101425 0.025768057 0.01991991 -0.02869501 0.016675018 0.04318604
0.04765691 0.009391911 0.02243492 -0.025604472 -0.044182397 0.02749852 0.018981569 0.051034115
-0.00061447173 0.03813149 0.03784307 0.0018733889 -0.037013873 -0.052664824 0.042799495 -0.060137033
0.027878292 -0.02604571 -0.005901836 0.033229776 -0.061949283 0.04397568 0.0031749979 0.038876303
0.015034892 0.031691924 -0.017271124 -0.028237648 0.02819001 -0.057962574 -0.04511237 0.0004222989
0.054899096 0.015276499 -0.027477272 0.035956033 0.02882208 0.02408652 0.059488714 0.04904093
0.0227639 -0.06236209 0.027802765 0.034719773 -0.03672059 0.036912344 0.062176608 0.019731544
0.04276637 0.036664985 -0.010475129 -0.055524528 -0.025630154 0.035238907 -0.04783363 0.05412379
0.011812955 -0.021706134 0.047514513 -0.051922396 -0.0044302195 -0.062106997 0.029736616 0.008279286
0.04128986 -0.031972706 0.046184525 -0.0622864 0.05198253 0.026421443 0.017775856 -0.047826923
-0.033070914 -0.010448389 0.032990977 0.04517933 0.057625182 0.013915382 -0.015433215 -0.053544894
2.681464e-05 0.008769996 -0.025187276 0.025505282 -0.043128364 0.009857401 -0.0006124154 -0.044899113
-0.057691008 -0.05016599 0.0596174 -0.022656552 0.015659586 -0.019817188 0.011788197 -0.052138567
0.028978147 0.050248876 -0.0031405538 0.0038840994 -0.05156377 -0.03792224 -0.0488735 0.057458416
-0.0030555204 0.020404153 -0.007825419 0.029488556 0.046066515 -0.046325 -0.042156175 -0.017934792
0.004110962 -0.011734925 0.026834212 0.028402202 0.013329335 -0.053790785 -0.03854061 0.032307
-0.023408584 -0.042852014 -0.013898037 0.048107207 0.015834406 -0.025676087 0.052851565 -0.010754988
0.051305175 0.06095601 -0.047426686 -0.013229296 0.047781356 -0.059772536 0.044223085 0.05054564
0.058173284 -0.023595974 0.05204256 0.014782175 0.05122634 0.025290944 0.0019867048 -0.061178453
-0.038298428 0.051370285 0.024597846 -0.018524945 0.06036623 -0.045902595 0.042540275 0.061200142
-0.023247287 0.017423183 0.03917653 -0.014812164 0.013609745 0.030661829 -0.017904498 -0.035490505
00000000: fc6b 71bd b869 20bd 6004 62bc 109f 813b
00000010: b40e da3c 1e64 633d 9833 4bbc f085 17bd
00000020: 24b2 1fbd f445 39bd 1a0b 253d 0a2d 623d
00000030: a0f6 7f3c 70b0 7b3c cc06 a73c 8e86 2c3d
00000040: 421f 0f3d ce62 2a3d 0052 ae3c f89a 003c
00000050: 1c56 86bc e0f9 1e3d c819 933c 88ad 1e3d
00000060: bac9 733d aa91 3f3d 26c7 6b3d 9ed4 403d
00000070: d047 79bc e89d c0bc 8879 5c3c e2b5 1f3d
00000080: fe1c 55bd b814 9a3c 345c ea3c 88cb f5bc
00000090: 9ef3 00bd 102d ebbc 505a 7b3d 603e 45bb
000000a0: f87c 0fbd 28f7 fa3c 326a 2ebd f8e5 75bd
000000b0: 7e85 293d 0080 0cb7 a06c a53b 0816 133d
000000c0: 801c 06bc b008 b2bb 0865 2fbc 4688 063d
000000d0: 907d 4abc 2051 863b 8200 2cbd aceb dfbc
000000e0: be3a 56bd 6e52 313d 20bc 563d 2c43 cd3c
000000f0: 60cf bd3c 24a1 eebc 4040 a83c 247b d33c
00000100: b663 6f3d 04a4 50bd 1038 1abd 5e3e 00bd
00000110: e483 4e3d 8037 41ba 5843 4b3d 8400 bebc
00000120: 981d 17bc b871 1d3c c44e 88bc 62ea 433d
00000130: 7210 363d deb3 4cbd c4ac e6bc fc2b 283d
00000140: a0ff 213d 8021 833a 96ee 4f3d 10be cd3b
00000150: ee6b 77bd f0d6 a9bc a84e 343d f063 60bc
00000160: 5c97 3dbd a02c 69bc aaf7 17bd 8817 d33c
00000170: 142f a33c cc11 ebbc 0c9a 883c d8e3 303d
00000180: e433 433d 88e0 193c 70c9 b73c 78c0 d1bc
00000190: 9af8 34bd 9444 e13c 3c7f 9b3c 2609 513d
000001a0: 8014 21ba c42f 1c3d 5601 1b3d 808c f53a
000001b0: dc9b 17bd 12b7 57bd 864e 2f3d 4052 76bd
000001c0: 0461 e43c d05d d5bc 3064 c1bb f21b 083d
000001d0: 88be 7dbd d81f 343d a013 503b c23c 1f3d
000001e0: e854 763c 64cf 013d 2c7c 8dbc a452 e7bc
000001f0: bcee e63c 2a6a 6dbd c0c7 38bd 0068 dd39
00000200: e0dd 603d 484a 7a3c 0418 e1bc a246 133d
00000210: 481c ec3c 1851 c53c 70aa 733d 24df 483d
00000220: 5c7b ba3c 646f 7fbd a0c2 e33c 5236 0e3d
00000230: 5468 16bd 6631 173d e6ac 7e3d 0ca4 a13c
00000240: ca2b 2f3d 062e 163d e09f 2bbc b06d 63bd
00000250: 54f6 d1bc ac56 103d 32ed 43bd e8b0 5d3d
00000260: 208b 413c 10d1 b1bc 949e 423d 94ac 54bd
00000270: 602b 91bb e863 7ebd 349a f33c d8a5 073c
00000280: 8e1f 293d d0f5 02bd fc2b 3d3d 0620 7fbd
00000290: a2eb 543d c871 d83c ac9e 913c 2ae6 43bd
000002a0: 5e75 07bd b82f 2bbc 8c21 073d f60d 393d
000002b0: 6208 6c3d 58fd 633c 98db 7cbc e451 5bbd
000002c0: 00f0 e037 08b0 0f3c 8c55 cebc 74f0 d03c
000002d0: 5ea7 30bd f080 213c 808a 20ba 22e8 37bd
000002e0: 684d 6cbd da7a 4dbd 6031 743d 3c9a b9bc
000002f0: 8848 803c a857 a2bc 4823 413c 408f 55bd
00000300: 9463 ed3c c4d1 4d3d c0d1 4dbb 608c 7e3b
00000310: 8834 53bd 5a54 1bbd 942f 48bd 8459 6b3d
00000320: 203f 48bb 9c26 a73c 3036 00bc fc91 f13c
00000330: 3eb0 3c3d 48bf 3dbd f4ab 2cbd fceb 92bc
00000340: 40b5 863b d843 40bc 6cd3 db3c bcab e83c
00000350: 4863 5a3c ba53 5cbd c2dc 1dbd 5854 043d
00000360: 5cc3 bfbc 9885 2fbd 98b4 63bc 100c 453d
00000370: 28b7 813c a856 d2bc e27a 583d b035 30bc
00000380: 6025 523d 02ad 793d 7c42 42bd b0bf 58bc
00000390: 62b6 433d 0cd4 74bd 4423 353d f208 4f3d
000003a0: 1c47 6e3d 584c c1bc 942a 553d f030 723c
000003b0: b6d2 513d f42e cf3c 6033 023b 4296 7abd
000003c0: d0de 1cbd a669 523d 6c81 c93c a0c1 97bc
000003d0: 9442 773d 5c04 3cbd b63e 2e3d 00ad 7a3d
000003e0: 1871 bebc 10bb 8e3c 9277 203d b8ae 72bc
000003f0: 68fb 5e3c 842e fb3c 74ac 92bc 7e5e 11bd

conv3.bias f4 [32]
0.020419814 0.057895623 0.034057252 -0.04799597 0.0032040253 0.060231417 0.018513858 0.025435872
0.02331648 0.040493585 -0.0043158457 -0.036974512 -0.01968041 0.05003883 0.0046131387 0.017632611
0.05979959 -0.016392924 0.03169456 -0.05986175 0.052288666 -0.042111285 0.034093104 0.028034233
-0.030567273 0.054026052 -0.0028284937 0.032063 0.044047832 -0.01313699 -0.02087225 0.0071040317
00000000: 7447 a73c f623 6d3d 9e7f 0b3d 6c97 44bd
00000010: a0fa 513b 38b5 763d 60aa 973c e45e d03c
00000020: 3402 bf3c 9adc 253d f06b 8dbb 9672 17bd
00000030: d038 a1bc 84f5 4c3d d029 973b 4472 903c
00000040: 6af0 743d 744a 86bc 28d2 013d 9831 75bd
00000050: a42c 563d e27c 2cbd 36a5 0b3d 0ca8 e53c
00000060: 3868 fabc 6c4a 5d3d 405e 39bb 7e54 033d
00000070: 806b 343d 883c 57bc 48fc aabc f0c8 e83b

lin1.weight f4 [52, 320]
0.0003171622 3.0089219e-05 0.000118015705 0.0002710127 2.558413e-05 6.6082546e-05 0.04395978 0.0005331942
0.0003053016 -0.00046990268 0.0025419793 -0.029168855 8.02735e-05 0.037626743 0.0011278292 -0.049462546
0.0005441881 -0.009727154 -0.04429155 0.00022418752 0.00044970747 -0.0010497825 0.00038394486 -0.041863155
0.00021083048 -0.00017604133 0.00011318285 0.042051986 0.00018983976 0.00039669187 -0.0015687457 0.0004501949
-0.00050951476 -0.007968365 0.0004631827 0.00046246083 0.020737406 -0.00074409664 -0.0005759157 0.0006208503
-0.000715949 0.00044405443 -0.00028031305 0.00012508978 1.0264038e-05 0.03757593 0.0001319867 0.0009049065
-0.0068104384 0.00017244671 0.00011808714 -0.03319301 0.035245784 0.00024925137 0.00045345695 2.0290703e-05
0.0008046603 0.009033402 0.00039123514 0.0002139398 0.038682472 0.00035951004 -0.03228126 -0.019820387
-0.0030530363 0.0003025224 0.0011860093 0.00073815405 -0.00096563017 -0.017423777 -0.0006997292 -0.00014639151
-0.016647048 -0.0005899917 0.00027444313 0.00015892298 0.0012302208 0.0332456 0.00054513407 7.088079e-05
6.37252e-05 0.0002968344 7.1286286e-06 0.0045103133 0.0003000106 0.0004940212 -0.00036054887 0.00092128356
0.00083705055 0.0002450176 0.03563674 -0.017088711 -0.0018487679 -0.013021495 -0.000776912 0.0016398913
0.041892514 0.023302857 -0.05427988 0.055617414 0.0013735017 -0.01535552 0.018261967 0.043059725
0.00030844906 0.0007032873 -0.00042539457 0.00017335433 1.0661629e-05 7.4069314e-05 -6.472148e-05 0.0007299512
0.00078669755 0.03496862 0.00026815868 0.021809231 -0.052136023 0.00012130376 -0.0045911726 -0.019451419
0.00022749297 0.00041759314 0.00012479561 0.00054657867 0.00032775846 6.412297e-05 0.00035258976 0.00015489991
3.702823e-05 0.0003465702 0.0012966226 0.0003265563 0.00053837674 0.00017218993 0.00010081122 0.00027668412
0.0002051512 0.00033743036 -0.00010467103 0.00012613265 0.00035753901 -0.014633505 -0.02454187 0.00021752274
-0.0008878652 0.00018184187 0.042959686 0.00018832472 -0.020740977 0.0003650705 -0.030236602 0.020333502
0.025713082 0.051779285 -0.055018663 -0.010942837 -0.0074487547 0.023398628 0.047781516 0.0023857339
0.00021544968 -0.0023188347 0.003884589 0.00026030123 -0.017252063 0.00016868731 0.0003297475 0.00019632491
0.011942821 0.0004114559 0.03216837 0.00025607814 0.0010125316 0.00029449692 0.00027841266 -9.973045e-06
-8.514435e-05 0.0002942759 0.0004586098 -0.0017626887 -0.00059142057 0.0002653588 -6.6141797e-06 0.00038093422
3.2230288e-05 -0.051190827 0.03813173 -0.032199472 0.00030504345 0.0006684008 -0.033420384 -0.037847146
0.041685738 -0.005948408 -0.036906347 0.0044234176 0.011302253 -0.024409804 -0.025519421 -0.02351613
-0.0005033853 0.00035774254 0.00021085078 0.03991084 8.023247e-05 0.00024499398 0.00023339367 0.00022898005
-0.00078326033 -0.00014889617 -0.0087503875 -0.00013419511 0.0003783763 0.00032435262 0.005322643 0.0003110519
0.007214998 2.219395e-05 0.00023402787 -0.00037111857 0.0005542954 0.0006911501 0.0026273113 0.0002299303
0.03719624 3.1182922e-06 -0.00021132514 -0.00052730594 0.00015296841 0.0002937705 -0.02028302 -0.00033396698
-0.00027738477 -0.003915487 -0.00097344094 -0.00032267664 -0.0013503563 -0.0037553823 0.00011733276 -0.0005394606
0.0002937241 0.0006387561 -0.040880244 0.00031696228 -0.0010684214 -0.0014883004 0.00024226756 0.00025143824
9.128847e-05 0.00031216216 0.00085644994 0.0006020978 0.00015943235 0.00015604711 -8.273073e-05 0.00016563741
00000000: ca48 a639 1b68 fc37 337f f738 b516 8e39
00000010: 809d d637 cc95 8a38 2c0f 343d 0fc6 0b3a
00000020: e310 a039 455d f6b9 5697 263b 86f3 eebc
00000030: 8258 a838 801e 1a3d abd3 933a 3d99 4abd
00000040: d8a7 0e3a a45e 1fbc 0e6b 35bd e113 6b39
00000050: b7c6 eb39 db98 89ba 354c c939 b378 2bbd
00000060: 6012 5d39 bc97 38b9 945c ed38 b43e 2c3d
00000070: b90f 4739 15fb cf39 5f9e cdba 2308 ec39
00000080: f590 05ba bf8d 02bc 54d7 f239 7176 f239
00000090: 7ee1 a93c 7b0f 43ba 0cf9 16ba 8fc0 223a
000000a0: 86ae 3bba facf e839 fbf6 92b9 882a 0339
000000b0: b533 2c37 38e9 193d e965 0a39 3f37 6d3a
000000c0: 192a dfbb d0d2 3439 8da5 f738 65f5 07bd
000000d0: e25d 103d f4ad 8239 f6bd ed39 f435 aa37
000000e0: d7ef 523a d600 143c b11e cd39 0755 6039
000000f0: 8371 1e3d 9f7c bc39 5b39 04bd 5d5e a2bc
00000100: 7315 48bb df9b 9e39 de73 9b3a ae80 413a
00000110: 5822 7dba 4fbc 8ebc 086e 37ba ac80 19b9
00000120: 645f 88bc aca9 1aba 22e3 8f39 90a4 2639
00000130: 5c3f a13a 8a2c 083d 54e7 0e3a d6a5 9438
00000140: 35a4 8538 70a0 9b39 7432 ef36 40cb 933b
00000150: be4a 9d39 3481 013a 0d08 bdb9 4b82 713a
00000160: 836d 5b3a b575 8039 d5f7 113d a0fd 8bbc
00000170: 5b52 f2ba 1c58 55bc afa9 4bba 9ff1 d63a
00000180: 7c97 2b3d a2e5 be3c 9454 5ebd 16cf 633d
00000190: 1207 b43a b895 7bbc 1f9a 953c 655f 303d
000001a0: 55b7 a139 d05c 383a 7e07 dfb9 73c6 3539
000001b0: 59df 3237 a955 9b38 14bb 87b8 325a 3f3a
000001c0: 613a 4e3a 413b 0f3d a697 8c39 46a9 b23c
000001d0: 958c 55bd 7664 fe38 8c71 96bb 9558 9fbc
000001e0: 2e8b 6e39 67f0 da39 91db 0239 4648 0f3a
000001f0: ffd6 ab39 c279 8638 ccdb b839 a16c 2239
00000200: c24e 1b38 ddb3 b539 6ff3 a93a a535 ab39
00000210: da21 0d3a e28d 3439 9d6a d338 ea0f 9139
00000220: db1d 5739 23e9 b039 d582 dbb8 7a42 0439
00000230: 1374 bb39 5ec1 6fbc 080c c9bc d116 6439
00000240: a0bf 68ba ceac 3e39 7ff6 2f3d 0879 4539
00000250: fbe8 a9bc ef66 bf39 c0b2 f7bc 7292 a63c
00000260: 3ea4 d23c 8416 543d 405b 61bd 9649 33bc
00000270: af14 f4bb 7bae bf3c 8db6 433d f959 1c3b
00000280: 55ea 6139 97f7 17bb 9794 7e3b 0a79 8839
00000290: 3354 8dbc a8e1 3039 f6e1 ac39 91dc 4d39
000002a0: d2ab 433c adb8 d739 fbc2 033d 3a42 8639
000002b0: ecb6 843a b566 9a39 eaf7 9139 e751 27b7
000002c0: 868f b2b8 0b49 9a39 9171 f039 050a e7ba
000002d0: 9009 1bba db1f 8b39 5fef ddb6 20b8 c739
000002e0: 022f 0738 79ad 51bd 0430 1c3d 98e3 03bd
000002f0: 3dee 9f39 9e37 2f3a d0e3 08bd 9c05 1bbd
00000300: aabe 2a3d ddea c2bb 1c2b 17bd 51f2 903b
00000310: 162d 393c 12f7 c7bc 1b0e d1bc e6a4 c0bc
00000320: 9ef5 03ba 648f bb39 d317 5d39 8d79 233d
00000330: 7b42 a838 8972 8039 23bb 7439 5d1a 7039
00000340: b653 4dba 0321 1cb9 c95d 0fbc bab6 0cb9
00000350: cf60 c639 df0d aa39 9169 ae3b ae14 a339
00000360: ca6b ec3b 252d ba37 6165 7539 b192 c2b9
00000370: 224e 113a 4c2e 353a f82e 2c3b 7219 7139
00000380: 165b 183d da43 5136 2997 5db9 e73a 0aba
00000390: 2566 2039 3605 9a39 9328 a6bc 4a18 afb9
000003a0: f46d 91b9 7c4d 80bb 842e 7fba ed2c a9b9
000003b0: 70fe b0ba dc1c 76bb 8c10 f638 976a 0dba
000003c0: fbfe 9939 3272 273a 0b72 27bd f52d a639
000003d0: 460a 8cba 1313 c3ba 3409 7e39 78d3 8339
000003e0: 2072 bf38 b2a9 a339 6283 603a 19d6 1d3a
000003f0: 4c2d 2739 94a0 2339 b97f adb8 f4ae 2d39

lin1.bias f4 [52]
0.031008085 0.083348766 -0.022781063 0.04828325 -0.0014381218 0.112250924 0.014586788 0.08236829
-0.0030965083 0.01236651 0.011840739 -0.02201018 0.04359882 -0.027490718 0.05232069 0.049211074
-0.021955002 0.028911136 0.08600635 0.014993481 0.04567934 -0.03960841 0.018166102 -0.01991605
-0.040357985 0.019015854 0.15610753 -0.035786558 0.10984346 0.017188696 -0.002054288 -0.021171888
0.04705576 0.024509445 -0.0140522225 0.14428963 0.08291082 0.026024165 0.021307992 -0.03488474
0.041254442 0.028152753 0.026519928 0.015384163 0.09869179 -0.02213779 0.10179583 0.00220823
0.04284824 0.046048637 -0.031358436 0.04151342
00000000: ab04 fe3c c2b2 aa3d 5a9f babc a8c4 453d
00000010: 5c7f bcba d0e3 e53d 6cfd 6e3c b5b0 a83d
00000020: caee 4abb e79c 4a3c a9ff 413c b14e b4bc
00000030: ad94 323d 3734 e1bc 384e 563d 8d91 493d
00000040: fada b3bc 0cd7 ec3c 1924 b03d 38a7 753c
00000050: 421a 3b3d 6e3c 22bd 14d1 943c fc26 a3bc
00000060: 6a4e 25bd 23c7 9b3c a7da 1f3e ed94 12bd
00000070: 9cf5 e03d 4fcf 8c3c 3ca1 06bb ab70 adbc
00000080: 8abd 403d 08c8 c83c 4b3b 66bc a9c0 133e
00000090: 26cd a93d a130 d53c 198e ae3c 4de3 0ebd
000000a0: 6bfa 283d 9aa0 e63c 5240 d93c db0d 7c3c
000000b0: ec1e ca3d 505a b5bc 557a d03d f4b7 103b
000000c0: a381 2f3d 7f9d 3c3d b471 00bd fa09 2a3d
